sample models/20_layer_randomized_model.onnx (onnx, 330395 bytes, 8 tensors)

convtranspose0_weight f4 [128, 16, 3, 3]
000000 64 e7 31 bf 17 43 79 bf ef 4a 1c 3f 2c 42 5f 3f
       -0.694937 -0.97367996 0.6105184 0.87210345
000010 8d d6 1b be 87 e3 21 be 8e 29 51 bf fd 05 45 3f
       -0.15218563 -0.15809451 -0.8170403 0.7696226
000020 11 9c 83 3e 45 80 d3 be 63 6a 56 be b2 06 6d 3f
       0.25705007 -0.413088 -0.20939021 0.9258834
000030 f0 ca 5a 3f bd b2 f7 3e 9f 23 2b bf 1f 8a a4 bd
       0.8546591 0.48378554 -0.6685123 -0.08034157
000040 61 f5 5f 3f 2a 50 fb 3e 79 ce 1c bf a0 10 6f be
       0.87483793 0.49084598 -0.6125255 -0.23346186
000050 cc 2d 7c be b4 c8 11 3f aa 81 6e 3d ea 86 f3 3e
       -0.24626845 0.56946874 0.058229126 0.4756387
000060 55 78 4f bf cf af 04 be ff d4 21 bf 67 d5 1d bf
       -0.8104299 -0.1295769 -0.6321563 -0.6165375
000070 08 17 64 3f 4c 83 14 be 17 c8 de bc 55 16 04 3f
       0.8909764 -0.14503211 -0.02719502 0.51596576
000080 5e c7 d8 be 50 4f 7b 3e 17 23 63 3e 0e ba 76 3f
       -0.42339605 0.24541974 0.22181354 0.96377647
000090 08 4c 42 3d 5a 3a 39 bf 68 b2 ca be 25 6f 6c bf
       0.04743579 -0.7235466 -0.39589238 -0.92357093
0000a0 66 09 98 be bf 64 02 bf ad af 24 bf a0 3d 19 bf
       -0.2969467 -0.50934976 -0.6433056 -0.5985966
0000b0 49 59 9d be a4 e6 59 bf 9a d1 c8 3e 1c 23 68 3d
       -0.30732182 -0.85117555 0.39222413 0.056674108
0000c0 54 34 d5 be fd 62 01 3e 46 6e cc 3d 8e f9 7b 3f
       -0.41641486 0.12635417 0.099819705 0.98427665
0000d0 f1 bf 1c 3f eb c9 32 bf e8 88 8d bd 84 b7 40 3e
       0.6123038 -0.6983935 -0.069108784 0.18820006
0000e0 24 d1 53 3f 78 ca f0 3e 9e 5c 70 3e e8 ab ac 3e
       0.82741 0.4702947 0.2347283 0.33724904
0000f0 bb dc 53 3f 0a d2 98 3e 8d bc 89 3d 74 70 31 bf
       0.8275868 0.29847747 0.06725416 -0.69312215
000100 08 cf 1d bf 6d cd 83 3e 96 0c 11 3f 60 99 8f 3d
       -0.6164403 0.25742665 0.5665983 0.07011676
000110 a4 5b 56 bf f2 50 be 3e fc 3a 3e be 54 13 f4 3e
       -0.8373358 0.3717113 -0.18577188 0.47670996
000120 a9 1d 67 3f 06 99 24 bf 03 a3 32 bf bc 68 ed be
       0.9027963 -0.64295995 -0.69779986 -0.46368968
000130 0a 0d df be fe 26 db be a7 01 6d bd 4e ad a5 be
       -0.43564636 -0.42803186 -0.057862904 -0.32358783
000140 49 b4 05 3f ed dc 5a 3f 0c 5e 88 be 1a 9b fc be
       0.5222822 0.85493356 -0.26634252 -0.49337083
000150 f8 0d 68 3f ed 16 17 3f b0 bf e6 3e bf fa 26 3f
       0.90646315 0.59019357 0.4506812 0.6522636
000160 6b 8f 11 be 71 a1 05 bf fc fd fe be cb 9a 5b 3f
       -0.14214866 -0.52199465 -0.4980315 0.8578307
000170 ff 4c 4f 3f 07 89 76 bf c4 29 75 bf b7 37 32 3f
       0.8097686 -0.9630284 -0.95766854 0.69616264
000180 10 ec 59 3f 9c fa 32 3f f1 9d 8e 3e a4 6f 70 3f
       0.8512583 0.6991365 0.27854875 0.9392035
000190 6e 0e df bd 2a 21 6d bd c8 cf 49 be a0 08 6b be
       -0.10891424 -0.057892956 -0.19708169 -0.22952509
0001a0 cd a0 74 3f 96 7a 61 bf 52 0a 61 bf 76 34 38 3f
       0.9555786 -0.88077676 -0.8790637 0.7195505
0001b0 ba 48 86 3e 41 4f 5f 3e 46 83 67 bf d8 5a ee 3e
       0.2622736 0.21807577 -0.9043468 0.46553683
0001c0 e4 68 26 3f 93 c0 e0 3e 61 21 20 3e f0 5b d3 3e
       0.650038 0.43896922 0.15637733 0.4128108
0001d0 61 50 25 3f b7 98 66 3e 89 b9 4e bf 4a 44 80 bd
       0.64575773 0.22519194 -0.80751854 -0.06263025
0001e0 25 40 5a 3e 68 95 9a 3e 30 ce 50 bf ec 17 3e 3f
       0.21313532 0.30192113 -0.8156462 0.7425525
0001f0 46 b7 61 3f af ac 1c 3f 74 54 3b 3e 66 9f 23 bf
       0.8817028 0.61200994 0.18293935 -0.639151
000200 9c 4a 3c bf 75 43 40 3f 72 d5 53 be 32 0d 09 be
       -0.73551345 0.7510293 -0.20686892 -0.1338394
000210 ad 96 70 bf c4 a1 2a 3f 1e 3b 9a be 22 1d d5 3e
       -0.93979913 0.66653085 -0.30123228 0.4162379
000220 58 d1 93 be 2c 87 61 bf e8 2f 91 3e 8a 70 7d 3e
       -0.28870654 -0.8809688 0.28356862 0.24749961
000230 37 54 be 3e 41 c6 1e 3f fa 01 39 bf 7b 6d 2a 3f
       0.37173626 0.6202126 -0.7226864 0.66573304
000240 8f 63 72 3f a2 de 79 3f 98 fa bb be 0c 9e 33 bf
       0.94683164 0.97605336 -0.36714625 -0.70163035
000250 be 86 c1 be e9 32 8d 3e b5 01 74 3f df 97 6e be
       -0.37798113 0.27577904 0.95315105 -0.23300122
000260 5e 9d 8b 3e 56 cf 33 3e f3 d2 60 3f a3 b8 66 bf
       0.272685 0.17559561 0.8782188 -0.90125483
000270 3a ac 42 bf 3f 0e 27 3f 7d 16 97 be 13 17 d6 3e
       -0.76044047 0.6525611 -0.29509345 0.4181448
000280 1b 4a 41 3f cb 30 ff 3e 82 6a 3f bf 57 de 4f bf
       0.755037 0.49841914 -0.74771893 -0.8119864
000290 27 0e 4c bf c1 20 4c 3f ed ad f2 be e4 c8 94 bc
       -0.79709095 0.7973748 -0.4739832 -0.018162198
0002a0 7d e0 07 3f d7 0b 94 3d 59 c5 0e bf b2 f1 08 bf
       0.53076917 0.07228821 -0.5576988 -0.534938
0002b0 61 6c 65 be b2 d5 96 be 7e 14 20 bf 5c 88 0c 3f
       -0.22404625 -0.29459912 -0.6253127 0.5489557
0002c0 f6 52 a9 be ff 2d c1 3e 29 20 44 bf ea 6a 7a bf
       -0.33071107 0.37730405 -0.7661157 -0.9781939
0002d0 a4 bc 64 bf 40 a0 f4 3e 3c 1e 32 bf 97 2d 2c 3f
       -0.8935034 0.4777851 -0.69577384 0.67257065
0002e0 48 72 70 bf cf 50 3f be 5b 30 e6 3e dc 01 59 bf
       -0.9392438 -0.1868317 0.44958767 -0.8476846
0002f0 52 c8 82 3e ca af 91 3e 00 f8 3f 3f a9 24 8b 3e
       0.25543457 0.2845443 0.7498779 0.27176407
000300 a5 34 79 bf 5f 5a 40 3f b0 0f 1d bf fb 5c 78 bf
       -0.97345954 0.75137895 -0.6135206 -0.97016877
000310 14 5f b9 3e 08 75 50 3f 40 c5 73 bf 7e 7c a0 3e
       0.3620535 0.81428576 -0.95222855 0.3134498
000320 05 bc 3f bf 5e 5e 0f bf 63 4b e3 3d ef fe 50 bf
       -0.7489627 -0.5600337 0.11098363 -0.81639
000330 02 2d 59 3e f3 cf 7f 3f 9f 7c eb be 2f 30 44 bf
       0.21208575 0.9992668 -0.45993516 -0.7663602
000340 79 79 49 bf 2f 4d 55 3f 8e 4c 4b be e5 56 47 3f
       -0.7870098 0.833209 -0.19853422 0.77866966
000350 9b 2c fb bd 73 c2 f0 be 45 35 ef be a7 03 02 3d
       -0.12264367 -0.47023353 -0.4672033 0.031741764
000360 99 4a d1 3e bd d9 5f bf fe 99 c7 be 0c 04 03 be
       0.40877226 -0.8744162 -0.38984674 -0.12794513
000370 d8 43 59 3e 6a cd 58 bf 2d 22 59 3f 93 96 31 bc
       0.21217287 -0.84688437 0.84817773 -0.010839122
000380 21 28 1b bf 1c 5d fa 3e dd f8 77 be 43 f9 30 bf
       -0.60608107 0.48899162 -0.24216028 -0.69130343
000390 97 6b 57 bf ef 2c eb be 09 03 9c 3e 9e 57 d8 3e
       -0.84148544 -0.4593272 0.30471066 0.42254347
0003a0 c2 51 63 3e 81 eb a7 3e 1c 5c 0b 3f f0 d1 fb 3e
       0.22199157 0.32796863 0.5443742 0.49183607
0003b0 eb 01 09 3d d5 59 34 3d db b1 06 bf b8 85 57 bf
       0.033449095 0.044030983 -0.52615136 -0.84188414
0003c0 0b 6e 40 3f 21 89 19 bf 5f 2b 44 bf ae 12 17 bf
       0.7516791 -0.5997487 -0.7662868 -0.5901288
0003d0 8b cd 51 3e 7b 47 9f be ca 30 76 bf 6e 10 65 bf
       0.20488565 -0.31109223 -0.96168196 -0.89478195
0003e0 82 17 d5 3e 76 4b 68 3f ba 75 5f bf 2d 4f f4 3e
       0.41619498 0.90740144 -0.8728901 0.47716656
0003f0 7e 75 3f bf 53 e3 b4 3e 06 c3 8a be b2 62 8f bd
       -0.74788654 0.35329685 -0.27101916 -0.070012465

resize0_scale f4 [4]
000000 00 00 80 3f 00 00 80 3f 00 00 80 40 00 00 80 3e
       1.0 1.0 4.0 0.25

convtranspose1_weight f4 [32, 55, 3, 3]
000000 20 8b 01 3e fe f0 2b bf b6 44 17 bf d9 55 ac be
       0.12650728 -0.671646 -0.5908922 -0.33659247
000010 81 01 78 3f 5c a1 1d 3f 07 f4 92 bd 5a 3a 67 bf
       0.96877295 0.6157434 -0.07175451 -0.9032341
000020 cc b4 ae be 12 a7 87 3e af 28 46 3f c8 7e b9 be
       -0.34122312 0.26494652 0.7740583 -0.3622954
000030 9e 13 85 3e 44 cd 84 3e b2 32 1c 3e 61 79 e8 3e
       0.2599153 0.25937855 0.15253714 0.45405105
000040 2e 25 23 bf 70 30 09 bf 83 f4 38 bf ad ad 00 3f
       -0.63728607 -0.53589535 -0.72248095 0.5026501
000050 41 10 c9 3d a3 92 47 3f c9 a6 0e 3f e7 16 5f 3f
       0.09817553 0.77958125 0.55723244 0.8714432
000060 ee 7c 4a 3f 4d 71 55 3e 93 bd 14 3f f5 6e fe be
       0.7909688 0.20844002 0.5810177 -0.49694028
000070 41 c8 a0 be 59 fd 5c bf 38 74 3f bf 2b 92 4e bf
       -0.31402782 -0.8632408 -0.7478671 -0.80691785
000080 46 16 65 bf 1c b0 08 3f a2 9b 36 bf 2f 7c 6b 3f
       -0.8948711 0.5339372 -0.71331227 0.91986364
000090 1c d8 85 3e 91 97 4b 3f e8 08 80 3e 05 37 2e 3c
       0.2614144 0.79528147 0.25006795 0.010633235
0000a0 48 0c f6 be e3 13 eb bd c5 32 85 3e ac e5 ed be
       -0.48056245 -0.114784025 0.26015297 -0.46464288
0000b0 b2 d0 40 bf d1 2e 71 3f 76 cf 62 3f 20 62 64 3e
       -0.75318444 0.9421206 0.8859781 0.22303057
0000c0 b9 4b 50 bf 4b af 0e bf a1 07 84 3e 95 38 e4 3e
       -0.81365544 -0.55736226 0.2578707 0.4457442
0000d0 5d c8 75 3f 6b db 31 bf 38 d2 52 be 00 07 39 bf
       0.96008855 -0.6947543 -0.20588005 -0.72276306
0000e0 ad 68 c6 3d 79 0d 03 3d 92 63 8c bd 45 b9 df 3e
       0.09687934 0.03199527 -0.06854929 0.43696037
0000f0 b6 57 2f bf 18 2d 45 bd dd fd 3a 3d a4 ea e2 bb
       -0.6849321 -0.048138708 0.04565226 -0.006924944
000100 78 90 73 3f 0c 0e 15 3f 47 30 0c bf 36 e4 75 bf
       0.95142317 0.5822456 -0.54761165 -0.9605135
000110 31 47 82 3e d8 ff 4a bf 69 2e 43 bf c3 ae e9 3e
       0.2544494 -0.79296637 -0.7624269 0.45641145
000120 e6 95 cd 3e c9 d4 48 bf 4e 04 30 be ea 2c 9e bc
       0.40153426 -0.78449684 -0.17189142 -0.019308526
000130 6e f1 37 bf 03 88 d5 bd 33 df b1 3e b8 d8 11 be
       -0.7185277 -0.10426333 0.347406 -0.14242828
000140 f7 1d 08 bf 90 16 8a bc 24 5c 24 3f 15 3e 85 be
       -0.5317072 -0.016856462 0.64203095 -0.26023927
000150 e7 27 ef be e8 76 21 3f 0d d7 01 bf be 84 2a 3f
       -0.4671013 0.6307206 -0.50718766 0.666088
000160 91 bd 40 3f e4 d7 29 bf 94 5f 14 be 5c fd 4d 3f
       0.75289255 -0.6634505 -0.14489585 0.8046472
000170 7b ca 31 bf 71 a2 69 3f 7f 45 a9 3d 0a 41 de bc
       -0.69449586 0.9126349 0.082652085 -0.027130622
000180 c0 fe 73 bf db dd a6 bd 3e 0e 58 3e a8 6b 2f 3f
       -0.9531059 -0.08147784 0.21099183 0.68523645
000190 01 f5 45 3c ee 32 7e 3f 6c 51 9a 3c aa f4 61 bf
       0.012082339 0.9929646 0.018837653 -0.8826395
0001a0 03 e4 d1 be 65 f6 14 bf bb 4e 64 be 4f 01 74 bf
       -0.40994272 -0.5818847 -0.22295658 -0.95314497
0001b0 71 f6 dc 3e 09 16 26 3f f2 30 4f bf 3d 06 35 3e
       0.4315677 0.6487737 -0.8093406 0.17678161
0001c0 cd e5 33 3f 17 82 25 bf 2e ee 5f 3e fd b9 b5 be
       0.70272523 -0.64651626 0.21868202 -0.3549346
0001d0 c5 13 32 be 66 8a 68 bf d6 20 4c 3f 69 3b 25 bf
       -0.17390354 -0.9083618 0.79737604 -0.6454378
0001e0 d9 ed 21 bf 60 e3 e7 3e 9a 47 26 be 64 36 7e 3f
       -0.6325355 0.4529066 -0.16238251 0.99301744
0001f0 8f 19 77 bf a1 4a 56 bf 1e e6 59 3f 86 55 e2 3d
       -0.96523374 -0.83707625 0.85116756 0.110514686
000200 8f 2a 7f bf 6d 5c 9d 3e f9 50 7c bf 02 fa f7 3e
       -0.99674314 0.30734578 -0.98561054 0.48432928
000210 5e 36 4e bf a8 38 e3 3e 72 ff 71 3f b9 88 fd be
       -0.8055171 0.44379163 0.94530404 -0.49518374
000220 bd fd 6e bf 00 3b 6e bf 7b b4 66 3f 52 ea de 3e
       -0.93355924 -0.93058777 0.9011914 0.43538147
000230 23 97 03 3f 14 40 20 bf da 1b bd 3e cb e4 50 3f
       0.5140249 -0.62597775 0.36935312 0.8159911
000240 0d f4 63 3f 65 e3 2f 3f 10 be 00 bf 15 6b 79 3c
       0.89044267 0.6870635 -0.5029001 0.015223284
000250 aa 4c ad be df 39 0c bf db 0d 05 bf 7b b5 8f be
       -0.33847553 -0.54775804 -0.51974267 -0.28068146
000260 f5 06 df 3e b1 fc 4c 3f 76 68 06 3f 0b 1c 68 3d
       0.43559995 0.80073076 0.52503145 0.05666737
000270 41 ed 31 3f 1b ca 9f be 19 97 8e be 85 b6 56 be
       0.69502646 -0.31208882 -0.27849653 -0.20968063
000280 4d c6 25 bf f6 bb a7 be 5b be 7a bf 61 3d b1 be
       -0.6475571 -0.3276059 -0.9794671 -0.3461714
000290 b7 df b1 be 96 1e ca bd 6e 30 54 3f 7d 4b 1a 3f
       -0.34740993 -0.09869115 0.828864 0.60271436
0002a0 f2 41 47 bf 82 c7 10 bf 01 b2 92 3e ea 03 f0 3e
       -0.77835 -0.56554425 0.2865143 0.46877986
0002b0 ae 0e 38 3f 61 de 16 bf c1 de 82 be f1 b8 69 bf
       0.718974 -0.58933073 -0.25560573 -0.91297823
0002c0 3d 25 54 bf 7b 1e 2f be 65 27 7c 3f 06 54 4a bf
       -0.8286932 -0.17101471 0.9849761 -0.7903446
0002d0 dc de 85 be b5 53 a9 3d 00 ae 1d bf fa 72 e1 be
       -0.2614659 0.08267919 -0.6159363 -0.44033033
0002e0 50 d3 80 be 18 f2 5d bf 4e e9 b6 be a8 48 25 be
       -0.2516122 -0.8669753 -0.35724872 -0.16140997
0002f0 59 51 2b 3e 66 8e 7d bf a2 c8 41 3f 51 54 4a be
       0.1673025 -0.9904541 0.75696766 -0.19758727
000300 f1 75 34 3f 8d dc c0 be 65 c3 4b bf 59 80 6c 3e
       0.70492464 -0.37668267 -0.79595023 0.23095836
000310 34 03 5a 3f f3 7d 4f 3f 42 91 1a 3f 8a c1 1b 3f
       0.8516114 0.8105156 0.60377896 0.6084219
000320 50 4f 7d 3f 7d fd 1a 3f a7 55 9c be 7d a7 b9 3e
       0.98949146 0.6054304 -0.30534098 0.36260596
000330 14 50 03 3f b3 9a 7d 3f 0b 2a 51 bf 79 35 77 3f
       0.51294065 0.9906418 -0.8170478 0.9656597
000340 6b 08 69 bf 2e 55 75 3f e5 42 b3 be 88 a7 67 3f
       -0.9102847 0.958331 -0.35011974 0.9049001
000350 8a d2 84 be 4a 68 2b 3f 9c 14 7d 3f 78 98 0e bf
       -0.2594188 0.6695601 0.9885957 -0.557014
000360 75 40 59 3f 06 be 59 be 24 01 0f bf b0 88 77 bf
       0.8486398 -0.21263894 -0.55861115 -0.96692944
000370 fd ea d4 3e 66 7c 68 3f f1 3a a6 be dc d9 d5 3e
       0.41585532 0.90814817 -0.32466844 0.41767776
000380 39 ab 89 be 41 40 5c bf 22 ca d0 be 09 0a 19 bf
       -0.26888445 -0.86035544 -0.40779215 -0.5978094
000390 f1 66 53 3f d9 7c 4c 3f 29 ef 19 bf a1 e0 cc 3e
       0.8257895 0.79878 -0.60130554 0.40015128
0003a0 f2 c2 ac 3e c8 cb 26 bf dc c0 98 3d f7 45 7a bf
       0.3374248 -0.65154696 0.0745866 -0.9776301
0003b0 e9 c0 67 3f 19 3e 73 bf d3 4a 37 be ec 19 ca bd
       0.9052873 -0.9501663 -0.17899637 -0.098682255
0003c0 3b 3a 48 3e 80 4b 2e 3f 75 35 61 bf 1e 1e 50 3f
       0.19553463 0.68083954 -0.87972194 0.81295955
0003d0 1f 9c b4 be cc c5 32 bf b5 60 d8 3d bb a3 84 3e
       -0.3527536 -0.69833064 0.105653204 0.25906166
0003e0 02 89 7b 3f 68 17 25 bf 82 4e 15 bf 50 5f 43 bf
       0.9825593 -0.6448884 -0.5832292 -0.7631731
0003f0 12 29 34 be b2 56 a3 3e 1f 7a 6a bf e9 91 2d be
       -0.17593792 0.3190208 -0.9159259 -0.16950192

gemm0_weight f4 [55, 283]
000000 a2 b7 37 3f 6e ca f8 be e6 64 be 3d 30 c4 82 3d
       0.71764576 -0.48591942 0.092965886 0.06385076
000010 b0 44 fc 3c bb d1 08 be c8 b3 97 be a9 ab 0a bf
       0.030794472 -0.13361256 -0.2962935 -0.5416818
000020 f8 be e5 be 49 f6 4d 3e 7c 14 1c bf f6 67 5d be
       -0.4487226 0.20113482 -0.60968757 -0.21621689
000030 87 e8 0e bf 47 c7 fd 3b 33 83 21 bf 64 79 86 bd
       -0.5582356 0.007744703 -0.6309082 -0.06566122
000040 6e 2d 8b 3e 5a 8a 72 bf 19 57 93 3c 25 4d 34 bf
       0.27183098 -0.9474236 0.017985867 -0.70430213
000050 f6 62 3a bf 86 9b d8 3e 82 d8 c8 3e 3d b9 9d 3e
       -0.7280725 0.42306155 0.39227682 0.30805388
000060 6a c7 41 bf ce c3 41 bf 11 7c b4 3e 52 b4 3d bf
       -0.75694907 -0.756894 0.35250905 -0.7410327
000070 29 2e d0 bd 56 df 43 bf c8 f8 40 be 62 bb 2e bd
       -0.10165054 -0.7651266 -0.18844903 -0.04265917
000080 9f 15 9c be 32 cf 84 3e 13 9d 70 3e 11 f5 50 3f
       -0.30485246 0.25939327 0.23497419 0.8162394
000090 e5 cd 58 bf 5f d8 d9 be 9e ad 9d be a0 2a 79 be
       -0.8468917 -0.4254789 -0.30796522 -0.24332666
0000a0 c4 02 b4 be 09 8d 4b be 1b 8b 61 bf 15 02 2e 3f
       -0.3515836 -0.1987802 -0.88102883 0.67971927
0000b0 79 79 11 bf da d8 3b 3e 64 25 d5 3e 5d 8c 6f bd
       -0.5682598 0.18344441 0.4163009 -0.05848347
0000c0 16 6a 03 3d 8f 16 42 3f 3c f9 16 3e 21 69 57 3f
       0.032083593 0.7581567 0.14743513 0.8414479
0000d0 0d 69 d9 be de 8e 0f bf 6e da d4 3e e2 2d 7a 3b
       -0.4246296 -0.56077373 0.415729 0.003817432
0000e0 79 88 1d 3f c4 cc b4 3e f0 ab 5b bf e4 d7 e2 bd
       0.61536366 0.35312474 -0.8580923 -0.11076334
0000f0 ae c3 3d 3f b2 64 ff be b0 08 84 be 2f a4 3a bf
       0.7412671 -0.49881512 -0.25787878 -0.72906774
000100 eb 86 07 bf b9 86 e3 3d d8 ec a0 be f7 a0 77 3f
       -0.52940243 0.11109681 -0.31430697 0.9672999
000110 2c 78 41 3f 8e e6 1a bf cb 03 00 3f 20 9f ce 3e
       0.7557399 -0.6050805 0.5000579 0.40355778
000120 b0 7d ed bd 82 b3 87 be fe e6 4d 3f d0 fe d4 3e
       -0.115962386 -0.2650414 0.8043059 0.41600657
000130 ea 5f 9b 3e 5c ed 4f 3f f7 9c b4 3e 6a d7 06 bf
       0.30346614 0.81221557 0.35276005 -0.52672446
000140 5a 52 19 3f 2e c9 90 bd 52 c1 09 bd 0d d5 9a be
       0.59891284 -0.07069622 -0.03363163 -0.3024067
000150 e8 c7 a1 3d 4d cb bd bc 4d ce c1 be f6 68 46 bf
       0.07899457 -0.02316823 -0.37852708 -0.7750391
000160 a9 f0 44 be 98 4e 31 3f 47 54 a1 3e 31 64 8c 3e
       -0.1923243 0.6926055 0.3150961 0.2742019
000170 8f f4 37 3f 51 8f b2 3c 23 ab 42 3f f0 c4 95 be
       0.7185754 0.021796854 0.76042384 -0.29251814
000180 eb 4c 21 bf db 99 23 bf ba ac 54 3e 93 53 9b 3e
       -0.6300799 -0.6390664 0.20769015 0.303372
000190 6b 58 e9 3e 00 10 d7 3d a3 74 c0 be d0 5c 1c bf
       0.4557527 0.10501099 -0.37588987 -0.6107912
0001a0 f8 8b 5e bd fb 94 40 3f 04 f6 7d 3e a4 66 d0 3e
       -0.054332703 0.75227326 0.24800879 0.4070331
0001b0 aa 20 5c 3f 69 65 2c bf 95 6f 31 bf 52 13 3a 3e
       0.8598734 -0.6734224 -0.69310886 0.18171433
0001c0 30 e6 48 bd a8 25 68 bf 03 28 ad be 77 c5 24 3f
       -0.04904765 -0.9068246 -0.3381959 0.6436381
0001d0 ea b1 4e bf 1e 99 be 3e c7 e9 c8 be a9 19 de bc
       -0.80740225 0.37226194 -0.39240858 -0.027111845
0001e0 d4 0a 77 3f 0e d4 ce be 1c b6 ae be 40 2c 31 3d
       0.965009 -0.4039616 -0.34123313 0.04325509
0001f0 94 43 bd 3d 3d c7 40 bf de 26 56 3f 16 44 19 bf
       0.09241405 -0.75304013 0.83653057 -0.59869516
000200 1c b7 53 be f3 1b 10 be 2f 99 2a 3f d1 3b 07 bf
       -0.2067532 -0.14073162 0.6663999 -0.5282565
000210 20 99 44 3f 3d fa 46 3f 27 13 37 bf be 78 3a 3f
       0.7679615 0.77725583 -0.715136 0.7284049
000220 66 f5 ae be 2b bf a5 3e 64 36 83 3b fc ba 72 3e
       -0.341716 0.32372412 0.0040042866 0.23704141
000230 ed 7a 07 3f 33 0d 72 bf 38 ae a6 3e 47 6c 25 bf
       0.52921945 -0.9455139 0.32554793 -0.64618343
000240 fb 37 55 3f e2 73 2f 3e d9 ff 32 bf 98 63 23 3e
       0.83288544 0.1713405 -0.6992164 0.15955961
000250 91 9d 7c bf f6 65 4f 3f c2 d3 1e be 1e 7c 4d 3f
       -0.9867793 0.81014955 -0.15510467 0.8026751
000260 4e 13 34 bf 9f 39 f3 bd 8b ef 51 bf bb 6e ff be
       -0.70341957 -0.11876225 -0.8200614 -0.49889168
000270 59 48 55 3f f4 a7 e2 3d 7b 50 5c be ab fc fa be
       0.8331352 0.11067191 -0.21515076 -0.49020895
000280 1c a2 b9 bd 35 fd 63 bf 03 c6 64 bf 42 cb 04 3f
       -0.09064123 -0.8905824 -0.8936464 0.51872647
000290 8c 1a 7d bf 31 3c 44 3d ae 70 91 bd ae f3 61 be
       -0.9886863 0.047908965 -0.0710157 -0.22065613
0002a0 bd a1 22 bf cd 08 e6 bd 9a 0d 3d bf 9e 87 13 be
       -0.63528043 -0.11232147 -0.7384888 -0.14407203
0002b0 81 7b 03 bf b1 95 35 bf 34 e4 45 bf 3a 5c 58 3f
       -0.51360327 -0.70931536 -0.77301335 0.84515727
0002c0 2b 1a eb be 40 bf ce 3d 34 60 18 be dd 4d 05 bf
       -0.45918402 0.10095072 -0.14880449 -0.52071935
0002d0 7d 9b 5a 3f 18 a8 88 bc 5e 7e 69 bf 2b df a9 be
       0.85393506 -0.016681716 -0.91208446 -0.33178076
0002e0 dd 65 8d be 3e 44 97 be 04 95 49 bf 74 21 53 bf
       -0.27616778 -0.29544252 -0.78743005 -0.8247292
0002f0 7c cf 21 bf f5 6e 75 3e 1b d4 51 bf 4e 5f 53 bf
       -0.6320722 0.23968108 -0.8196427 -0.825673
000300 6b 7b f8 3e 21 9a 83 3e 89 2f ff 3e 78 cd 73 3f
       0.4853166 0.2570353 0.49840954 0.95235395
000310 91 5d bd 3e 88 f5 6d 3e ee 26 8f bd 8e f6 33 bf
       0.36985448 0.23238194 -0.06989847 -0.7029809
000320 23 9d 6e 3f f2 3b 24 3f 85 bc 80 3e 63 25 54 be
       0.9320852 0.6415397 0.2514383 -0.20717387
000330 b9 c7 2d 3f c4 98 32 3f 68 91 e0 be 18 48 fe be
       0.6788288 0.6976435 -0.43860936 -0.49664378
000340 48 fa 29 bf 5b 7f b7 be de 93 71 bd bb 06 04 3f
       -0.66397524 -0.35839352 -0.058978908 0.5157277
000350 5e 1c b7 3e 33 31 97 bd 07 47 1d 3f fc 27 69 be
       0.3576383 -0.07382431 0.61436504 -0.22769159
000360 c3 c7 db be a6 6a a7 3e dc 53 b0 3e 24 e6 9f 3e
       -0.42925844 0.32698554 0.3443898 0.3123027
000370 86 85 35 bf 1c 34 77 3f fa 58 54 be cb c0 29 3f
       -0.70906866 0.9656389 -0.20737067 0.66309804
000380 7d 36 7e bc 51 cd 7d 3e 46 a5 e6 bd d8 44 71 3f
       -0.015515921 0.24785353 -0.11261992 0.9424567
000390 f8 73 e9 3e 4f a3 5f bf 80 37 b4 3e 92 e3 37 3f
       0.4559629 -0.87358564 0.35198593 0.7183162
0003a0 24 e5 ef bd 29 63 8d be 19 63 5c 3d e8 ea ae be
       -0.11713627 -0.27614716 0.053805444 -0.34163594
0003b0 93 59 3d 3f 35 f8 b9 3d 92 b8 89 3e 1f 11 32 3f
       0.73964804 0.09080545 0.26898628 0.69557375
0003c0 1c c1 be be 25 1e 2b 3f 54 5a 1f 3f f6 75 04 bf
       -0.37256706 0.6684287 0.62247205 -0.51742494
0003d0 7e e9 9f be 8a 9a 1a 3f 19 46 66 3e 5d 30 78 3f
       -0.31232828 0.6039206 0.22487678 0.96948797
0003e0 8f 34 bf 3d b9 d3 34 bf 6c 1d 45 3f 5b 99 12 3f
       0.09336197 -0.70635563 0.7699802 0.5726525
0003f0 7e 50 e7 be 83 e8 2b bf ec 55 7a 3f 6e 24 09 3d
       -0.45178598 -0.6715166 0.97787356 0.033482008

gemm0_bias f4 [283]
000000 c6 a7 c2 3e 58 63 64 bf 52 36 5d bf 0b c5 58 bf
       0.38018626 -0.89214087 -0.8641101 -0.84675664
000010 07 70 47 bf 54 c3 7f bf a3 8b 0b 3f 58 af 6d bf
       -0.77905315 -0.9990742 0.54509944 -0.9284568
000020 99 70 42 bf 58 02 3d bf 6d a6 05 3f d7 87 85 3e
       -0.7595306 -0.738317 0.5220707 0.260802
000030 b7 f4 0d 3f 2a 55 43 bf 97 15 c2 be f4 f7 67 bf
       0.5545153 -0.76301825 -0.37907097 -0.9061272
000040 50 7a e2 3d c2 84 11 3f 8e ac 10 be 84 83 35 3f
       0.110584855 0.568432 -0.14128324 0.709038
000050 f4 82 0a 3f c0 fe 49 3c 5d e0 f6 3e 90 f4 13 bf
       0.5410607 0.012328804 0.4821805 -0.5779505
000060 24 71 38 3f fb 35 e5 bd a6 07 44 3f b8 4f 70 bf
       0.7204764 -0.111919366 0.7657417 -0.9387164
000070 fc 28 34 3f 94 1d 9c 3e 7c d1 31 3f d7 80 d7 be
       0.7037504 0.30491316 0.6946027 -0.42090484
000080 dc 87 fe be dc 5b 2b 3f 5c 1b ef 3e 97 e8 77 bf
       -0.49713027 0.6693704 0.4670056 -0.9683928
000090 0c 26 65 3f fd 0b ad 3e f0 71 82 3e f0 29 14 bf
       0.8951118 0.3379821 0.25477552 -0.5787649
0000a0 46 9e 6d bf e1 00 73 3f 52 14 96 3d 25 c1 4b bf
       -0.9281963 0.94923216 0.073280945 -0.7959159
0000b0 a6 2d 2c bf b2 78 8c 3e c0 81 ba be 9f b0 02 3e
       -0.67257154 0.27435833 -0.36427116 0.12762688
0000c0 5e b9 8f 3e 2d 8d 19 3f dd 8d 17 bf aa 8d 6c bf
       0.2807111 0.5998104 -0.5920084 -0.9240366
0000d0 11 35 d3 3e c5 44 be bd 3c 02 34 3f 94 bd 0d 3f
       0.41251424 -0.092904605 0.7031591 0.553674
0000e0 74 1d 00 bf 62 ac 6e bf 21 fd f8 3e be b1 06 3e
       -0.5004494 -0.93231785 0.48630622 0.13153741
0000f0 af 1b 7a 3f db fc 5c bf c6 98 35 3f d5 75 67 be
       0.9769849 -0.86323327 0.7093624 -0.22603543
000100 47 35 81 be d2 92 29 3f fd 28 50 3f 5f f9 7b 3f
       -0.2523596 0.66239655 0.81312543 0.98427385
000110 38 eb 2e bf fe 9c 2a bf 51 19 b7 3e b6 06 74 bf
       -0.68327665 -0.666458 0.35761502 -0.9532274
000120 8e f9 01 3f ce d0 36 3f 19 53 69 bf f5 f3 26 bf
       0.50771415 0.7141236 -0.9114242 -0.65216
000130 cf 32 94 be 07 b9 f9 be c2 92 29 bf 9f a7 13 3f
       -0.28945014 -0.48773977 -0.6623956 0.57677644
000140 ff 5b 3c 3e 18 e3 71 3f 85 b2 11 3f 57 08 7a bf
       0.18394469 0.9448714 0.56913024 -0.97668976
000150 2a eb 60 3f e8 10 bf 3e 85 b4 c3 3e 86 5b 20 bf
       0.8785883 0.37317586 0.38223663 -0.62639654
000160 c2 b5 32 3f a7 bd 4a bf 7a 6b 0c be 0f 65 c4 be
       0.6980859 -0.79195637 -0.13712874 -0.38358352
000170 a2 69 5a 3f b0 e9 3e bf 2a d4 13 bf f4 d6 d9 3e
       0.8531743 -0.7457533 -0.5774561 0.4254681
000180 4f ed a9 be 08 3f 7f 3f 1f 1b 71 3f 96 93 53 3e
       -0.33188865 0.99705553 0.9418201 0.20661768
000190 18 5c d1 3d 2c de 34 3f 39 94 b9 3e b5 a0 40 3d
       0.102226436 0.7065151 0.36245897 0.047028262
0001a0 3e 7c 3f bf 5d b5 41 3d 4a 29 54 bf a7 5e 1c 3d
       -0.74798954 0.047292102 -0.828755 0.038176205
0001b0 79 2a e4 be 8b 56 77 3f 95 ca eb 3e 4f e2 17 be
       -0.44563654 0.9661643 0.46052995 -0.14832424
0001c0 e4 4a 84 be b2 e3 ec 3e 0a 88 5b 3d 80 33 c2 be
       -0.25838387 0.46267468 0.053596534 -0.37929916
0001d0 a2 69 59 3e 28 7c 5a 3f 03 1c e8 3d c4 45 3a be
       0.21231702 0.853457 0.11333468 -0.18190676
0001e0 ac 05 54 3f 73 76 09 be 85 5d 22 3e a4 bc 08 bf
       0.82821155 -0.13424091 0.15855987 -0.5341284
0001f0 fb c3 68 3e f1 bf 3e bf 48 c8 49 3f f5 e1 0d be
       0.2273101 -0.7451163 0.7882123 -0.13855727
000200 52 66 ac be f7 69 c6 3e 5f 02 f7 bd 40 97 99 be
       -0.33671814 0.3875272 -0.12060999 -0.29998207
000210 af 1d 29 3f 16 69 19 3e 0f 73 60 be 37 6a 0f bf
       0.6606092 0.14981493 -0.21918891 -0.56021446
000220 0d 9d 52 3f 35 36 5e bf 7c 96 2f bf 90 9b 2e bf
       0.8227089 -0.86801463 -0.68588996 -0.6820612
000230 19 01 f6 3d 94 c0 1b 3f ef ee f6 3c ef 06 5b be
       0.12011928 0.60840726 0.03014323 -0.21389364
000240 a0 b9 7a be c3 89 4e 3f fb b7 12 3f 3a 83 9b 3e
       -0.24484873 0.8067896 0.5731198 0.30373555
000250 f9 c6 02 bf fc 78 da be 0b ba 1c 3e db 4f 5a bf
       -0.5108486 -0.4267043 0.15305345 -0.852781
000260 42 eb 41 3e 42 6d 06 3f fc ce 2a 3f 2e cb 3f 3f
       0.189374 0.52510464 0.66722083 0.749194
000270 b5 3f fc be dd bc d4 be 55 73 96 bd b2 90 5c bf
       -0.49267355 -0.4155034 -0.073462166 -0.8615829
000280 d9 e2 b9 3d 7e 14 8d 3e a2 99 e4 bd 00 23 91 bd
       0.09076471 0.27554697 -0.11162116 -0.07086754
000290 e6 61 33 3f 9f c7 63 be ee e6 02 bf 04 97 14 bf
       0.70071256 -0.22244118 -0.5113362 -0.5804293
0002a0 fc c7 c6 3e e4 cb bf 3e 54 fa 78 3f df 77 21 bf
       0.3882445 0.37460244 0.9725697 -0.63073534
0002b0 1f fa 51 bf ab 11 17 bf 8d 19 04 3e 47 c0 2f bf
       -0.8202228 -0.59011334 0.12900372 -0.68652767
0002c0 a0 8c 58 bf 0b b6 54 be 6b 12 27 3e 9b e8 12 be
       -0.84589577 -0.20772569 0.1631562 -0.14346544
0002d0 dc 70 b3 3e a9 5f 83 3c 32 e2 26 bf 84 46 ad 3e
       0.35047042 0.016036825 -0.65188897 0.33842862
0002e0 2e 22 05 3f 84 ca c0 be 31 4f 51 bf 64 26 ca bd
       0.5200528 -0.37654507 -0.8176146 -0.09870604
0002f0 62 18 13 3f ac 6b 95 3e e8 45 8d be 3c 96 d1 be
       0.5745908 0.2918371 -0.27592397 -0.40934932
000300 26 68 8a 3d d2 6d bc be 85 e8 48 3f 27 0f 00 3f
       0.06758146 -0.36802536 0.78479797 0.5002312
000310 3b 50 4f 3e 61 37 34 3e b6 55 20 be 70 e5 74 bf
       0.20245449 0.1759925 -0.15657696 -0.95662594
000320 2a a5 11 bf 5d ff 40 bf d7 e1 3e 3f bb 62 f7 be
       -0.56892645 -0.75389653 0.74563354 -0.48317513
000330 df 35 1e bd 8a 05 42 3d a4 da 19 bf ef aa 5c bf
       -0.038625594 0.047368564 -0.60099244 -0.86198324
000340 33 7c d5 3c 2b e5 4e 3f a0 65 c7 be d8 51 c8 3e
       0.0260602 0.8081843 -0.3894472 0.39124942
000350 28 22 22 bf 61 b3 10 3f 21 1b d7 3e e3 73 b9 be
       -0.6333337 0.5652371 0.42012885 -0.36221227
000360 b4 df d5 3e dc 8c 76 3f de 05 a8 bd 4b 97 7f bf
       0.41772234 0.96308684 -0.08204244 -0.9984023
000370 4d aa 5c be 4d 31 42 bf 9f 8d 75 bd ad 49 35 bd
       -0.2154934 -0.7585648 -0.059949514 -0.044259716
000380 25 c9 d2 bc 00 ca b6 be 8a 45 2d 3f 33 67 04 3f
       -0.025730679 -0.3570099 0.67684233 0.5171997
000390 27 3f 25 bf a4 68 e1 be fc 5c 7a 3f ef 77 18 3f
       -0.6454949 -0.44025147 0.9779813 0.59558004
0003a0 0a f8 a9 3e 73 69 7e 3f 3b 9b 36 be dc ce c4 be
       0.3319705 0.9937965 -0.17832653 -0.3843907
0003b0 03 6e 4b bf 4f ab 3e 3e 43 8e 42 be e6 01 81 3e
       -0.7946474 0.18620037 -0.18999581 0.2519676
0003c0 1d f4 77 3e c6 90 85 3e 17 91 91 be 7a e4 57 3f
       0.24214216 0.26087016 -0.28431007 0.84333
0003d0 bd ae f9 be 1b db 18 be 30 ad 23 3f a0 6f f0 be
       -0.48766127 -0.14927332 0.6393614 -0.46960163
0003e0 fd ed 43 3f f5 0c b8 be 6b 7d 09 3f b7 f7 ba be
       0.76535016 -0.35947385 0.53707 -0.36517116
0003f0 19 83 b1 be 66 45 2e 3f 17 5f f4 3e 7d ed b2 3e
       -0.34670332 0.68074644 0.47728798 0.34946814

conv0_weight f4 [42, 27, 3, 3]
000000 9c df d1 3d 7d de 57 bf 91 d7 2f bf 5c 43 89 3e
       0.10247728 -0.84323865 -0.68688303 0.26809204
000010 d9 36 67 3f e6 94 6a bf c9 e2 c9 be 38 1f 38 3f
       0.90318066 -0.9163345 -0.39430836 0.71922636
000020 bc e1 12 bf 83 6c 44 bf 64 91 7f bd 66 a8 0d 3f
       -0.57375693 -0.76728076 -0.062394515 0.5533508
000030 08 79 4c bf 45 8b cc bd 18 52 7a bf be 27 44 bf
       -0.7987218 -0.09987501 -0.97781515 -0.7662314
000040 ca b8 ec 3e c3 94 a0 be 96 c8 49 be f2 61 80 3e
       0.46234733 -0.31363496 -0.19705424 0.25074726
000050 59 dd d3 be 30 3d aa be 60 ce 5a be e9 5a 94 be
       -0.41379812 -0.33249807 -0.21367788 -0.2897561
000060 1b c4 61 3e f2 b3 70 3e a2 fe 9a be fe 89 f6 be
       0.22047465 0.23506144 -0.30272394 -0.48152155
000070 8e b8 c3 3e dd c0 43 3f 1c 58 48 bf 76 00 a3 be
       0.38226742 0.7646616 -0.78259444 -0.3183629
000080 68 32 61 3f b3 db 20 3f da e6 b0 be 2a 21 3b 3e
       0.8796754 0.62835234 -0.34551126 0.1827437
000090 e2 94 70 3f af 25 21 bf a3 82 48 3f 1f 34 c5 3e
       0.9397718 -0.62948126 0.78324336 0.38516328
0000a0 6f 91 7e 3e 5b 1a d4 bc 16 76 e3 3e 5b ab 7f 3f
       0.24860166 -0.025891474 0.4442603 0.9987084
0000b0 ff bc cb 3e 5d 27 33 bf ce e3 44 bd b1 95 b1 bd
       0.3979263 -0.6998194 -0.048068814 -0.086711295
0000c0 6d 37 22 bf 4a 81 4d bf f0 d3 b7 3e 43 82 10 bf
       -0.63365823 -0.80275404 0.35903883 -0.56448764
0000d0 55 f0 95 3e d1 ef 0a bf 83 f8 42 bf 7e 00 3d 3e
       0.2928492 -0.5427218 -0.7616045 0.18457219
0000e0 3b b7 ce 3e 09 5b 1b 3f c9 2c 42 bf 34 5a 41 3f
       0.4037417 0.60685784 -0.75849587 0.75528264
0000f0 40 2d e0 be 85 b6 6d bf 4f 7b 06 be 52 6b c5 3d
       -0.43784523 -0.9285663 -0.13132976 0.0963961
000100 a4 a5 2b bf 3f 6d a9 be a6 a5 3d bf f6 da 60 bf
       -0.6704962 -0.3309116 -0.74080884 -0.8783411
000110 35 21 3e bf f7 fd 53 be 2b fe 2f bf fb 19 88 bd
       -0.7426942 -0.20702349 -0.68747205 -0.066455804
000120 47 86 3e 3f a2 64 0c 3f fc c5 18 bf f9 af 5b 3f
       0.7442364 0.54841053 -0.596771 0.8581539
000130 dc 51 04 be 90 b4 03 bf 4e 34 b4 3e f1 1c 49 3f
       -0.12921852 -0.5144739 0.35196155 0.78559786
000140 0f 66 c8 3e c0 96 d5 bd e4 12 71 bf 88 80 75 3e
       0.39140365 -0.10429144 -0.9416945 0.23974812
000150 06 b0 17 bf 77 2b 6a 3f 27 79 d2 3b cb 32 4a 3e
       -0.59252965 0.9147257 0.006423134 0.19745938
000160 38 35 79 3f d9 69 12 3f 2e ad 55 3e d3 74 2f 3e
       0.9734683 0.5719276 0.20866844 0.17134409
000170 e3 49 d3 3c 36 39 fe 3e bf e9 68 bf df 62 a4 be
       0.025792068 0.49653023 -0.9098167 -0.32106683
000180 a5 79 00 3e f7 7f 4d bf a8 ad 4e 3f 1a b0 5c bf
       0.12546404 -0.80273384 0.8073373 -0.8620621
000190 d4 ef 0e bf 25 ac 8d 3e 68 d7 b7 be c0 71 7a be
       -0.558347 0.27670398 -0.3590653 -0.24457455
0001a0 aa 8f 68 bf ac 74 7d 3e 5d c4 73 3f de d2 5e 3f
       -0.90844214 0.24751538 0.952215 0.8704051
0001b0 27 d2 11 bf ea 53 14 bf b2 fa 38 bf 8d a4 36 3f
       -0.5696129 -0.5794054 -0.7225753 0.71344835
0001c0 ab ff 6a 3e 46 de 2f 3f ed b7 f7 be 66 d0 3c 3f
       0.22949092 0.6869854 -0.48382512 0.7375549
0001d0 58 86 3a bf 9e db d3 3d 3d 5c a1 3e c6 82 6b 3f
       -0.7286124 0.10344623 0.31515685 0.9199642
0001e0 2f 76 f4 3e c0 43 05 3f ec e2 2f 3f 45 0a f6 3e
       0.47746417 0.52056503 0.6870563 0.4805471
0001f0 6d 8d a8 be ca 9d 62 3f 0c 99 6d 3f ef ef c0 3e
       -0.329204 0.88522017 0.92811656 0.37683055
000200 5a 1e fa be b2 74 1b bf 3c 85 31 3e 62 5a 73 be
       -0.4885128 -0.6072494 0.17335981 -0.23764947
000210 2a b2 c8 be c5 30 ce 3e 42 a9 04 bf 40 8d 63 3f
       -0.39198428 0.40271583 -0.51820767 0.88887405
000220 74 14 90 be 1b 34 1a 3e 2d 87 7f 3f 83 20 52 bf
       -0.28140604 0.15058939 0.99815637 -0.8208086
000230 ac 0f 81 be 54 4a 0e bf 38 fd d2 bd 58 58 9e be
       -0.2520727 -0.55582166 -0.10302204 -0.30926776
000240 a1 7a 4d bf 7d 16 b1 bc 5c 2a f5 bc ac 93 1d bf
       -0.8026524 -0.021617169 -0.029927425 -0.61553454
000250 3b 78 35 3f 4b e5 73 bf 69 19 0b 3f 67 ba 63 bf
       0.7088658 -0.9527175 0.5433565 -0.889563
000260 83 12 cf 3e 99 e1 0b 3f e1 c3 30 3f c6 1e a4 3e
       0.4044381 0.5464111 0.6904889 0.32054728
000270 fc 6e 4b bf 49 52 ea bd 1b 40 59 3f 0e 77 67 3f
       -0.79466224 -0.11441476 0.8486344 0.9041604
000280 3b 72 20 3f 83 c0 77 3f 32 43 72 3f 9b 08 30 3f
       0.626743 0.96778125 0.9463378 0.6876313
000290 fe 41 62 3f 74 51 60 bf 5d 86 d9 3d 02 65 78 be
       0.88381946 -0.8762429 0.10621331 -0.24257281
0002a0 54 d3 e4 3e 0a 8f 12 3f 2e da 6f bf 5c c1 0a 3f
       0.4469248 0.5724951 -0.9369229 0.54201293
0002b0 10 94 35 be 4c 4c 7d 3f 23 1a 2c bf e1 cd 58 3e
       -0.17732263 0.98944545 -0.6722738 0.21172287
0002c0 a5 bc 72 3f e3 8b 0a bf 32 53 7e bf 5e b1 1e bf
       0.948191 -0.541197 -0.99345696 -0.6198939
0002d0 8b f5 a0 be e2 bb 72 bf 07 c4 a3 be 3e 03 b7 3e
       -0.31437334 -0.94817936 -0.31985494 0.3574466
0002e0 5f 23 0a bf a6 e3 5a 3e 4a 85 23 3f 3e 1e 26 3d
       -0.5396022 0.21375903 0.6387526 0.040556185
0002f0 2c c8 04 3f a3 a0 45 bf 67 0c 1a 3f cb 39 be be
       0.5186794 -0.7719824 0.60175174 -0.37153468
000300 48 37 7c bf da 0f 7a be 15 2d 5e 3f d4 b0 6b 3f
       -0.9852185 -0.2442011 0.8678754 0.92066693
000310 d5 b7 01 be 54 ec 39 bf b6 d5 10 3f f5 43 fe 3e
       -0.12667783 -0.72626233 0.56576097 0.49661222
000320 18 d1 4f bf 1b 8c 7c 3f 48 b4 5e be 36 a0 7f 3e
       -0.81178427 0.98651284 -0.2174846 0.2496346
000330 e3 ac 20 bf cf 7b 3f bd 28 c4 0a bf 14 b9 da 3e
       -0.62763804 -0.046748932 -0.5420556 0.42719328
000340 56 20 ec 3e 81 44 7f 3e c3 08 78 3f 60 9e 36 3e
       0.4611842 0.24928476 0.9688837 0.17833853
000350 9c b2 05 3f ce fc 8c be 29 ff 2a 3f 2e 05 c7 3e
       0.5222566 -0.27536625 0.66795594 0.3887114
000360 50 5e 48 be 25 ed a4 be 98 b4 a1 3d 64 18 c5 bc
       -0.19567227 -0.32212177 0.07895774 -0.024059482
000370 f0 8a 7e 3f 42 a7 30 bf d1 0e 53 bd 70 41 d4 be
       0.9943075 -0.69005215 -0.051527802 -0.41456175
000380 df f2 21 3d 15 29 25 3f 50 88 76 bf fb 65 45 bf
       0.03953826 0.6451581 -0.96301746 -0.77108735
000390 80 a7 29 3d 83 f3 ca 3e 51 17 6f 3f 8e bc 20 3f
       0.041419506 0.3963891 0.93394953 0.6278771
0003a0 d4 00 86 be 66 60 a2 3d c1 03 1d 3f 97 4b 9c 3e
       -0.26172507 0.07928543 0.61333853 0.3052642
0003b0 38 0a 3e 3c 8d 55 94 3e ee 4e 3e bf 0b c3 39 3f
       0.011599116 0.2897152 -0.7433919 0.72563237
0003c0 3b cd 83 3d e1 a1 40 3f d0 a0 34 bc 74 90 66 3f
       0.06435629 0.7524701 -0.011024669 0.9006417
0003d0 37 84 27 bf c4 aa 02 3e 12 7e 2f bf 52 e0 b0 be
       -0.6543612 0.12760454 -0.68551743 -0.34546143
0003e0 53 8d 80 bd 4e 8a 30 3f be e7 74 bf 68 9c cb bd
       -0.062769555 0.68961036 -0.9566611 -0.099419415
0003f0 00 d1 f1 3e a0 12 4e 3f dd 7b 11 bf 11 f7 ef 3d
       0.47229767 0.8049717 -0.56829625 0.11717046

convtranspose2_weight f4 [42, 56, 3, 3]
000000 21 a2 6b 3e b2 52 16 3f ff cc 01 3f b0 c3 85 bd
       0.23011066 0.58719933 0.50703424 -0.06531465
000010 32 71 73 3f b1 84 21 be 6a 8b 68 3f 68 c8 d6 be
       0.950946 -0.15773274 0.9083773 -0.41949773
000020 0b 18 32 3e df 4b ec bd 7d 2d 13 3f 2c 2b 0e be
       0.17391984 -0.11537909 0.57491285 -0.13883656
000030 16 8b 3d 3e c0 6f 8b 3e 45 6f dd be 16 43 6a 3f
       0.18510088 0.27233696 -0.43248954 0.91508615
000040 08 df 51 bf 7e d0 36 3e ab 79 77 3e 01 4d 08 bf
       -0.81980944 0.17852971 0.24167506 -0.532425
000050 97 fa 6f bf 28 e7 ea 3e 84 77 45 bf a5 c9 54 bf
       -0.93741745 0.45879483 -0.7713549 -0.83120185
000060 95 79 90 3e b2 86 aa be 40 90 6b 3f cd c0 3e bf
       0.2821776 -0.3330589 0.92016983 -0.7451294
000070 9b bb f0 3e 69 e2 8c be e2 bc c2 3e c6 01 46 3f
       0.47018132 -0.27516487 0.3803473 0.77346456
000080 36 90 27 bf d3 be 8b 3e 9d 9d 5b bf 29 a0 6c bf
       -0.65454423 0.27294025 -0.85787374 -0.92431885
000090 58 95 d8 be 72 f4 44 3f 2d bd 33 3f be 02 18 3f
       -0.4230144 0.76935494 0.70210534 0.59379184
0000a0 db ac 87 bc 26 48 2f 3a b3 51 ca be 52 e9 0c 3f
       -0.016561916 0.0006686471 -0.39515457 0.5504352
0000b0 83 00 9a 3e ac fa 12 3f 04 1f 27 3f c4 d5 6c 3f
       0.30078515 0.57413745 0.652817 0.9251368
0000c0 a2 49 c2 be ef ac 5c bf cc 45 7c be ef f9 e1 be
       -0.37946802 -0.86201376 -0.24636 -0.44135997
0000d0 57 95 b8 3e 70 58 2c 3f 88 20 00 3f 21 49 12 be
       0.36051437 0.67322445 0.5004964 -0.14285709
0000e0 bc 98 f8 3d 85 b8 12 bf ec d3 ce be 48 62 6f 3f
       0.12138507 -0.57312804 -0.4039606 0.9350934
0000f0 40 2a 3a 3e 2d 17 e6 3e 86 63 c2 bd 49 a6 0b be
       0.1818018 0.44939557 -0.09491639 -0.13637652
000100 cd de 4c bf 83 c2 0b 3f 97 69 5b be d3 a1 82 3c
       -0.80027467 0.54593676 -0.21426998 0.015946304
000110 c0 ce 64 3f 84 d7 12 bf 9a 85 69 bf ff 4b 44 3f
       0.89377975 -0.573601 -0.91219485 0.7667846
000120 ce 46 92 3e 55 53 c7 be 5f 67 62 bc 3f a8 78 3f
       0.28569645 -0.38930765 -0.013818591 0.97131723
000130 f0 1e 63 bf a7 49 57 3f e6 32 26 bf 61 8c 99 3e
       -0.8871908 0.8409676 -0.64921415 0.29989913
000140 bd 46 05 bf 75 f4 35 3f a9 18 a6 be 43 96 06 3e
       -0.52061063 0.71076137 -0.3244069 0.13143258
000150 e8 3b 4d bf 0a 53 0a 3e 61 f4 3d 3f 0e 84 55 bf
       -0.80169535 0.1350824 0.7420102 -0.83404624
000160 ac 54 dd bd 27 ea b9 3e a9 53 cb 3d be 86 fc 3e
       -0.108071655 0.36311457 0.09928066 0.4932155
000170 be 93 f6 be cf 8f 6c bd e5 27 61 bf 02 33 e0 3e
       -0.48159593 -0.057754334 -0.879515 0.43788916
000180 2e 31 0b 3f c4 61 6e 3f 65 4e 5b 3f 78 53 c5 3e
       0.5437192 0.9311793 0.85666496 0.38540244
000190 80 38 f5 be 2c a4 05 bf f1 d1 19 bd 08 da 77 bf
       -0.4789467 -0.5220363 -0.03755373 -0.96817064
0001a0 26 5f d7 3e 40 36 3b be 0a 6d 71 3c 35 da c4 be
       0.4206478 -0.18282413 0.01473547 -0.3844773
0001b0 e9 a2 d4 3e cc 83 29 3e af 24 a1 bc a3 0b 9e 3e
       0.4153054 0.16554183 -0.019670812 0.30868253
0001c0 0c ca 68 3f a6 ac 95 be 06 15 04 3f 53 34 55 3f
       0.909333 -0.29233283 0.5159458 0.83282965
0001d0 97 d1 f0 be 32 29 55 bb b8 0f 2c be c7 b6 e1 3e
       -0.47034904 -0.0032525775 -0.16802871 0.4408476
0001e0 f8 de 86 3d 9d 55 36 3f af a2 cf 3e 23 82 0c 3e
       0.06585497 0.71224385 0.40553805 0.13721518
0001f0 ba 26 5c 3d 13 ca 43 3f ed ee dd 3e 3c 6d 71 3f
       0.05374787 0.76480216 0.43346348 0.94307303
000200 c7 38 5d 3f 70 fd d0 3e 1c e3 3a bf 58 c6 26 3f
       0.8641476 0.40818357 -0.7300279 0.651464
000210 89 86 7d 3f 0a e5 38 be f0 10 e6 3e 9f 38 70 bf
       0.9903341 -0.18056121 0.44934797 -0.93836397
000220 df e5 67 3f fd 08 88 be 87 f9 04 bf 37 6f 1a bf
       0.9058513 -0.26569358 -0.5194325 -0.6032595
000230 7f eb 62 bd 39 45 39 3e ea da 1a bf 82 ef 80 3e
       -0.055400368 0.18092813 -0.60490286 0.2518273
000240 2d 26 19 3f aa cf ec be 47 74 78 3f 6c 41 38 3d
       0.59823877 -0.46252185 0.97052425 0.044984266
000250 03 8d 4d bf ac a3 37 be ac 1c 13 bf 47 d3 58 3f
       -0.8029329 -0.1793353 -0.57465625 0.84697384
000260 11 e0 bc be 2e 43 97 bd a8 51 94 3d 55 4e cb 3e
       -0.368897 -0.073858604 0.07242137 0.397082
000270 b2 72 db 3e ef 5f 51 bf d6 59 5f be 04 69 28 be
       0.42860943 -0.8178701 -0.21811613 -0.1644631
000280 0f ff e8 be cb db 47 3e 4a c1 a4 bb 22 b6 72 bf
       -0.45507094 0.19517438 -0.0050279247 -0.9480916
000290 08 14 0d be 89 7d 06 3f e8 05 4f 3d ad 0b c7 3e
       -0.13777173 0.525353 0.050542742 0.38876095
0002a0 5d 10 dd 3e bd 0a ce be bf d8 ae 3e 87 0a 7c bf
       0.43176547 -0.40242568 0.3414974 -0.98453563
0002b0 62 fc 5c bf e7 9a 11 3f 28 48 7c 3f db 7c 1e bf
       -0.86322606 0.5687699 0.985476 -0.61909264
0002c0 d7 84 f5 3d 04 70 6b 3f 40 49 4e 3f 58 fc 8f 3e
       0.11988228 0.919678 0.8058052 0.2812221
0002d0 62 f2 2f bf e1 35 3a 3f 64 93 6f be 60 6d 0c bf
       -0.6872922 0.7273846 -0.23396069 -0.54854393
0002e0 2f 7f 72 3f 43 a7 b7 be 14 98 71 3f 32 16 fb be
       0.94725317 -0.35869798 0.9437268 -0.4904037
0002f0 49 99 2d bf d1 0e 2d bf d1 6d 23 3f a7 f6 76 3f
       -0.6781202 -0.67600733 0.6383944 0.9647011
000300 4a 26 10 be 7f 9d fb be 20 12 3c 3f 92 3c 65 3f
       -0.14077106 -0.49143597 0.73465157 0.8954555
000310 a2 af 2d 3c 6b 55 a1 be f8 fc 23 3f c0 2e 39 be
       0.010600956 -0.3151048 0.64057875 -0.1808424
000320 21 83 ce 3d fb 06 e2 3d 8d e2 00 3f 37 7f f7 3e
       0.100836046 0.11036488 0.5034569 0.48339245
000330 3f 11 14 3f ce 19 8b be 0d 06 4c 3f 8d 9e da be
       0.57838815 -0.27168125 0.7969673 -0.4269909
000340 0b 79 7e bf 88 80 18 3f 89 20 97 3e 0c 63 9e be
       -0.99403447 0.59571123 0.2951701 -0.30934942
000350 99 fa 14 3f 8f a9 fd be 6d 72 6d bf b3 e7 7b be
       0.5819488 -0.49543425 -0.92752725 -0.24600105
000360 19 ca 29 3f 6c 7d 66 bf 7b 2b 4b 3f 2a 5b 4c bf
       0.66324 -0.9003513 0.7936322 -0.79826605
000370 18 a1 3e 3f 2d 37 ea 3e f5 6d 39 bf df 5e 58 be
       0.7446456 0.4574522 -0.72433406 -0.2112994
000380 43 89 e8 bd df f8 73 3f f5 a0 9b b8 86 47 66 bf
       -0.113543056 0.9530162 -7.4209565e-05 -0.89952886
000390 5b f1 5f 3e 50 2b 69 3e 7d 4f 59 bf 0b d9 2d 3e
       0.21869414 0.22770429 -0.84886914 0.16977327
0003a0 a7 6a 18 3f a1 00 03 3f 0d 9d 7f bf d8 c9 ef 3e
       0.5953774 0.51172835 -0.99849015 0.46833682
0003b0 f0 92 a1 3d 70 1a 32 be 36 e5 0a be 78 76 58 bf
       0.07889354 -0.17392898 -0.13564 -0.8455577
0003c0 47 83 ea be 43 5c 95 3e 6f 0c fc bd 70 32 ed be
       -0.45803282 0.29171953 -0.12307059 -0.46327543
0003d0 2b 3b 35 bf a6 8f 45 bd 3f 43 0f bf 68 ba 8a 3d
       -0.7079341 -0.048232697 -0.55961984 0.067738354
0003e0 ab 19 ca be 68 44 ff 3e bb 36 05 3f f4 4a e8 be
       -0.39472708 0.49856877 0.5203664 -0.45369685
0003f0 1b 59 a2 be 7d 59 b3 3e 51 ca 50 3f 31 a1 57 be
       -0.31708607 0.35029212 0.8155871 -0.21057583

resize1_scale f4 [4]
000000 00 00 80 3f 00 00 80 3f 00 00 80 3e 00 00 00 40
       1.0 1.0 0.25 2.0
