sample models/30_layer_randomized_model.onnx (onnx, 99823 bytes, 3 tensors)

conv0_weight f4 [39, 128, 1, 1]
0.26726758 -0.21825843 -0.5543176 0.011333903 -0.9586074 -0.18877688 -0.3456603 -0.52333874
-0.27585736 -0.76260793 0.19652084 0.73182875 -0.80633384 0.57189 -0.8754168 0.14914955
-0.17173554 -0.93189526 -0.037008893 0.06353814 -0.24325821 -0.61122435 -0.6062075 -0.752
-0.07956399 -0.4497145 -0.90707785 -0.9838627 0.8999452 0.39040273 0.6494682 -0.2668939
0.44464487 0.43731993 0.9334529 0.87739164 -0.020620033 -0.65359783 0.7649419 -0.4013487
-0.2943681 -0.9137713 -0.7302069 -0.671858 -0.64029247 -0.2491688 -0.62930447 -0.18102036
0.011407288 0.06352269 -0.8255206 0.85877556 -0.11388847 -0.35171065 -0.782702 -0.5062902
0.3646761 -0.84601253 0.54156995 0.86599076 0.978427 -0.66421705 0.8022288 0.6205885
0.14664312 0.9248143 0.8061743 -0.7170812 -0.3440566 0.4073538 -0.6562353 0.30462062
0.19392152 0.11337784 -0.2177773 -0.30394796 -0.9246675 -0.39384225 -0.98109955 0.37675956
-0.56776965 -0.59373266 -0.19353063 -0.4245962 -0.9995618 -0.68857646 -0.5505827 -0.32530123
0.7064535 0.66452163 0.061614364 -0.71194714 -0.10286235 0.75777173 -0.08436186 -0.9690943
0.9047532 -0.16806686 -0.1927061 0.91965336 -0.6360909 -0.28826708 -0.6953466 0.7659725
-0.8239281 -0.8070242 0.521255 0.9774596 -0.17655425 0.56284875 -0.05827449 -0.22557274
0.02814993 -0.059515838 0.67060196 0.024210874 0.3973031 -0.21555065 0.8588724 -0.008489123
0.7347091 -0.4010995 0.8973979 -0.49127406 -0.95599115 0.96352273 0.056587085 0.71814895
-0.12607697 0.4413526 0.9742613 -0.5170343 -0.20046134 0.06267553 -0.05046708 0.6405053
0.38211554 0.97068113 0.32983515 0.6015007 0.86002314 -0.29873848 0.84495616 0.38097546
-0.4414905 -0.94878846 -0.05731089 0.6514625 0.07020048 0.8362774 -0.0046144 -0.45501122
-0.70568293 0.8504958 0.95693755 0.020980295 0.74076355 -0.1626381 -0.65019566 0.67451906
-0.412029 0.1815147 -0.4851555 0.5342993 0.44157144 -0.8186065 0.083998315 0.305806
-0.65755635 0.9801967 0.56649506 -0.17439924 -0.47307014 -0.41513962 -0.8507017 0.74187005
-0.10258514 0.6539168 0.6282432 0.057955787 0.24422657 0.37612748 0.7819478 0.37350053
-0.22286747 0.598316 0.72921306 -0.80525863 -0.029927567 0.6853554 -0.24060474 -0.6381966
0.33136493 -0.20026717 -0.09686614 0.6492828 0.79522365 -0.3112626 -0.44422495 0.64188343
0.7065391 0.6588475 -0.5325289 0.866459 0.17839675 -0.86486644 0.13626103 0.7723618
0.19276467 0.08593024 -0.71216 -0.22020826 0.77057534 0.170863 0.26742622 0.12731147
-0.8278545 -0.6212113 0.48310277 -0.06861767 0.21821506 -0.2693616 -0.8406862 -0.66201997
-0.15387478 -0.3546688 -0.6586823 0.20239688 -0.710424 -0.33309042 0.33199385 -0.60152346
0.41268012 -0.7894417 0.59129447 0.33085933 0.7048598 -0.5638911 0.88333064 0.43092623
0.21293831 0.8702381 -0.34783992 -0.2344154 0.9451187 -0.32369122 -0.6399299 0.94037044
-0.7057419 0.19728228 0.28755128 0.76345956 -0.6254199 -0.9474491 0.30798846 0.5770876
00000000: 4cd7 883e 237f 5fbe c2e7 0dbf d6b1 393c
00000010: 4b67 75bf ba4e 41be 63fa b0be 87f9 05bf
00000020: 2d3d 8dbe 463a 43bf c23c 493e 2159 3b3f
00000030: e56b 4ebf 6267 123f 511b 60bf a9ba 183e
00000040: 71db 2fbe b090 6ebf a396 17bd 4920 823d
00000050: ae18 79be 3379 1cbf 6a30 1bbf 1283 40bf
00000060: 72f2 a2bd fb40 e6be 4136 68bf 6dde 7bbf
00000070: cf62 663f dee2 c73e 8c43 263f 51a6 88be
00000080: 7ea8 e33e 66e8 df3e c5f6 6e3f bd9c 603f
00000090: 58eb a8bc 3052 27bf 3bd3 433f 947d cdbe
000000a0: 6ab7 96be eaec 69bf d7ee 3abf e3fe 2bbf
000000b0: 35ea 23bf 1b26 7fbe 191a 21bf 675d 39be
000000c0: a2e5 3a3c 2f18 823d 5155 53bf b7d8 5b3f
000000d0: 5c3e e9bd 6b13 b4be 295f 48bf 3c9c 01bf
000000e0: d3b6 ba3e 4794 58bf 54a4 0a3f 92b1 5d3f
000000f0: 317a 7a3f 210a 2abf de5e 4d3f e3de 1e3f
00000100: 9d29 163e a1c0 6c3f 7061 4e3f a292 37bf
00000110: 3028 b0be ad90 d03e 09ff 27bf 3cf7 9b3e
00000120: 5d93 463e a432 e83d 0301 5fbe 119f 9bbe
00000130: 02b7 6cbf b1a5 c9be 5729 7bbf a1e6 c03e
00000140: 5a59 11bf ddfe 17bf e52c 46be ac64 d9be
00000150: 48e3 7fbf 8c46 30bf fdf2 0cbf e28d a6be
00000160: 23da 343f 171e 2a3f 585f 7c3d 2b42 36bf
00000170: 7fa9 d2bd 54fd 413f e9c5 acbd 9016 78bf
00000180: e89d 673f b819 2cbe bf54 45be 676e 6b3f
00000190: dad6 22bf be97 93be 3c02 32bf c616 443f
000001a0: f4ec 52bf 2399 4ebf f870 053f cb3a 7a3f
000001b0: a3ca 34be db16 103f 3bb1 6ebd 8afc 66be
000001c0: af9a e63c e1c6 73bd 92ac 2b3f e255 c63c
000001d0: 506b cb3e 4fb9 5cbe 10df 5b3f f615 0bbc
000001e0: e515 3c3f ea5c cdbe debb 653f 4688 fbbe
000001f0: d6bb 74bf 6da9 763f dcc7 673d 9cd8 373f
00000200: 521a 01be f8f8 e13e 3069 793f 5c5c 04bf
00000210: bd45 4dbe 075c 803d 92b6 4ebd 28f8 233f
00000220: a6a4 c33e 8f7e 783f 27e0 a83e f3fb 193f
00000230: 7a2a 5c3f 40f4 98be 0c4f 583f 370f c33e
00000240: 0b0b e2be cde3 72bf d3be 6abd 3fc6 263f
00000250: 45c5 8f3d 4716 563f 6534 97bb 3bf7 e8be
00000260: a3a7 34bf 18ba 593f dcf9 743f dede ab3c
00000270: aea2 3d3f 9a8a 26be 3973 26bf 48ad 2c3f
00000280: 77f5 d2be fdde 393e 4d66 f8be d7c7 083f
00000290: a715 e23e 3290 51bf 4f07 ac3d 9b92 9c3e
000002a0: 9d55 28bf 2cee 7a3f d205 113f b795 32be
000002b0: 4036 f2be 2e8d d4be 96c7 59bf 32eb 3d3f
000002c0: 2818 d2bd 1767 273f 8cd4 203f 0c63 6d3d
000002d0: 8816 7a3e c893 c03e bb2d 483f 763b bf3e
000002e0: 5f37 64be 3d2b 193f b5ad 3a3f 6e25 4ebf
000002f0: a82a f5bc 7473 2f3f 1761 76be da60 23bf
00000300: aaa8 a93e d612 4dbe c161 c6bd 6637 263f
00000310: c793 4b3f d05d 9fbe 7471 e3be 7952 243f
00000320: bfdf 343f 3baa 283f d053 08bf 42d0 5d3f
00000330: a3ad 363e e367 5dbf 0388 0b3e 81b9 453f
00000340: 1a64 453e 32fc af3d 1e50 36bf 467e 61be
00000350: 6d44 453f b6f6 2e3e 17ec 883e f05d 023e
00000360: 46ee 53bf b407 1fbf 3f59 f73e 6c87 8cbd
00000370: c573 5f3e c3e9 89be 3637 57bf 247a 29bf
00000380: 5a91 1dbe 2697 b5be 679f 28bf 2141 4f3e
00000390: 59de 35bf d48a aabe 19fb a93e 71fd 19bf
000003a0: cf4a d33e da18 4abf 135f 173f 6566 a93e
000003b0: b171 343f 2b5b 10bf f521 623f 5da2 dc3e
000003c0: 800c 5a3e edc7 5e3f 1318 b2be 970a 70be
000003d0: 4df3 713f dbba a5be 72d2 23bf 1ebc 703f
000003e0: 80ab 34bf 5e04 4a3e ec39 933e 1672 433f
000003f0: 851b 20bf 068c 72bf aab0 9d3e 03bc 133f

gemm0_weight f4 [195, 95]
-0.97436774 0.9303864 0.6697018 -0.9337481 0.5704224 0.25653628 -0.6825218 -0.38694784
-0.322592 0.77987564 0.16214792 -0.81420505 0.44665542 0.11007093 0.5645466 -0.59383935
0.8044601 0.03946581 -0.7891435 -0.68473834 0.27323094 -0.3814113 -0.5150466 0.34922868
-0.0011467014 0.091554426 0.92510796 0.5374239 -0.3989565 -0.49324232 0.98489046 0.8247665
-0.5378356 0.21241486 0.55616564 0.48741397 0.82548004 0.39047384 -0.6938073 -0.6913539
-0.54563576 0.6377289 0.47527468 0.5120706 0.46010947 -0.51194066 -0.2841208 0.24127804
0.047225066 0.19891591 0.9963178 -0.1275312 0.29933318 0.37090197 0.89078754 -0.070586555
-0.8773825 -0.18491822 -0.25214338 -0.67403275 0.47246882 0.11758908 0.5236432 0.76836103
-0.25554127 -0.6952504 0.99564064 -0.29632416 0.4746532 -0.8918721 -0.13034527 -0.20020443
0.655404 -0.39154637 0.9130602 -0.32517555 -0.4496863 0.40308326 0.63604045 -0.44226035
-0.43541318 0.030063085 -0.868172 0.8839894 0.35402358 -0.26863435 0.30294743 0.06628374
-0.50164914 0.08537748 0.12203884 -0.469914 -0.21206963 0.1582132 -0.9784861 -0.8007163
-0.34190193 0.8896036 0.88285863 0.25826967 0.9422384 -0.18252453 0.8105726 0.8471697
-0.72514933 -0.19802655 0.020409744 0.16295952 -0.45745155 0.031485762 0.3922814 -0.4551092
0.52428186 -0.21965398 -0.40268674 0.98215836 -0.53609616 0.10352432 0.14644754 0.08004219
-0.15725498 -0.52260154 0.53754187 -0.05104456 0.051501393 -0.47926176 -0.03958952 -0.80760455
0.9012295 0.9158584 -0.093304805 -0.42661697 -0.46484017 -0.9199257 -0.2487742 -0.96307427
0.57434404 -0.2261568 -0.31781253 -0.44496357 0.3082989 -0.37646073 -0.74924517 -0.29261833
0.15494813 -0.10132017 0.24081604 0.69328564 0.769477 -0.046278782 0.32907557 -0.19201465
-0.30895042 -0.93370175 -0.17121834 -0.5733114 0.35948297 -0.5494046 -0.31749403 -0.83257806
0.25670117 -0.5755124 0.4820357 -0.06347153 -0.8447182 0.20675607 0.91227835 0.5638249
0.48402312 -0.34553233 -0.07547041 -0.3063287 0.0102473665 0.6670571 0.73008376 -0.9875316
0.39188087 0.23782565 0.4923356 -0.9576314 0.27379328 -0.086130396 -0.4778849 0.4600186
0.33703092 0.5044996 0.3577686 0.04638793 -0.58766997 -0.09671076 0.20500505 0.9341076
0.42229584 0.52461267 0.39581525 -0.16291538 0.26287028 0.73948693 -0.7607027 -0.16315433
0.38574588 -0.15271172 0.5077399 0.5947192 0.69545114 0.81507343 0.5317622 -0.58938867
-0.14911553 -0.47060522 0.380045 0.90169555 -0.39975566 0.4986483 -0.36310995 0.17155206
-0.60853463 0.10372487 -0.1695842 -0.94442236 -0.50429 0.9043597 0.2956156 0.2497441
0.11738018 -0.76928777 0.59983563 -0.42893714 -0.902725 -0.6548958 -0.67655516 -0.35148543
-0.36081755 0.69922036 -0.72756803 0.7312156 0.85606694 -0.70180094 -0.7406617 0.10469841
0.43233642 0.6058625 0.28014868 0.53600436 0.531431 0.14830923 -0.47595796 -0.4391409
-0.6471862 -0.1251553 0.75632215 -0.22955853 -0.066650264 -0.112520315 -0.38394514 0.95326453
00000000: 2a70 79bf ce2d 6e3f 9471 2b3f 1e0a 6fbf
00000010: 3407 123f b958 833e c0b9 2ebf 071e c6be
00000020: c72a a5be eea5 473f 1b0a 263e be6f 50bf
00000030: 05b0 e43e de6c e13d 2086 103f db05 18bf
00000040: 19f1 4d3f e7a6 213d 4f05 4abf 034b 2fbf
00000050: ede4 8b3e 5848 c3be 18da 03bf 1ace b23e
00000060: ea4c 96ba e380 bb3d e0d3 6c3f 9d94 093f
00000070: 0744 ccbe 428a fcbe c821 7c3f e623 533f
00000080: 98af 09bf 4883 593e df60 0e3f 538e f93e
00000090: a952 533f 30ec c73e 5b9d 31bf 92fc 30bf
000000a0: c9ae 0bbf 3442 233f 3457 f33e 0f17 033f
000000b0: 7893 eb3e 8b0e 03bf 4878 91be 9711 773e
000000c0: 126f 413d 9db0 4b3e af0e 7f3f 8a97 02be
000000d0: 3342 993e dde6 bd3e a70a 643f af8f 90bd
000000e0: 249c 60bf 345b 3dbe f018 81be 698d 2cbf
000000f0: 6fe7 f13e 8bd2 f03d 7b0d 063f 4fb3 443f
00000100: 4ed6 82be eefb 31bf 4ee2 7e3f cdb7 97be
00000110: bf05 f33e bb51 64bf 3b79 05be 6402 4dbe
00000120: 8ec8 273f c478 c8be 50be 693f 697d a6be
00000130: 483d e6be ee60 ce3e 8cd3 223f f36f e2be
00000140: 7aee debe dc46 f63c 8540 5ebf 214d 623f
00000150: 9442 b53e 718a 89be ed1b 9b3e c5bf 873d
00000160: 146c 00bf 63da ae3d 80ef f93d 9198 f0be
00000170: c828 59be a402 223e 117e 7abf befb 4cbf
00000180: c50d afbe 10bd 633f 0603 623f ec3b 843e
00000190: 8936 713f b6e7 3abe b081 4f3f 1de0 583f
000001a0: 63a3 39bf 79c7 4abe 5632 a73c dcde 263e
000001b0: 1737 eabe 37f7 003d 1cd9 c83e 1304 e9be
000001c0: 5637 063f f9ec 60be f52c cebe bb6e 7b3f
000001d0: 993d 09bf 8f04 d43d 58f6 153e 29ed a33d
000001e0: 7307 21be 37c9 05bf 589c 093f 1a14 51bd
000001f0: 20f3 523d cc61 f5be 9f28 22bd 2cbf 4ebf
00000200: fab6 663f b275 6a3f 9716 bfbd 8a6d dabe
00000210: 88ff edbe 4080 6bbf aabe 7ebe 098c 76bf
00000220: 3608 133f a695 67be 53b8 a2be 44d2 e3be
00000230: 5ad9 9d3e 76bf c0be 88ce 3fbf 12d2 95be
00000240: b9aa 1e3e f380 cfbd 7b98 763e 2b7b 313f
00000250: 72fc 443f d28e 3dbd 987c a83e 7d9f 44be
00000260: c02e 9ebe 1407 6fbf dc53 2fbe 89c4 12bf
00000270: 270e b83e c8a5 0cbf 948e a2be d623 55bf
00000280: 566e 833e c854 13bf 62cd f63e 5dfd 81bd
00000290: 743f 58bf ddb7 533e 138b 693f d456 103f
000002a0: e1d1 f73e 9de9 b0be 3b90 9abd 1ed7 9cbe
000002b0: 92e4 273c 41c4 2a3f c5e6 3a3f dfce 7cbf
000002c0: 9ca4 c83e 9188 733e 6913 fc3e 5527 75bf
000002d0: a22e 8c3e 2265 b0bd 54ad f4be 8f87 eb3e
000002e0: 518f ac3e e326 013f 722d b73e 4501 3e3d
000002f0: 8a71 16bf 4a10 c6bd d8ec 513e ad21 6f3f
00000300: 2937 d83e 044d 063f 4ca8 ca3e 4ad3 26be
00000310: ef96 863e 044f 3d3f 6abd 42bf ee11 27be
00000320: 7c80 c53e 7660 1cbe 3efb 013f 843f 183f
00000330: 1609 323f a7a8 503f 9121 083f 2de2 16bf
00000340: beb1 18be 2bf3 f0be 4295 c23e 85d5 663f
00000350: c6ac ccbe d44e ff3e 8ce9 b9be 58ab 2f3e
00000360: edc8 1bbf b46d d43d 7ba7 2dbe aac5 71bf
00000370: 2619 01bf 1e84 673f ee5a 973e ebbc 7f3e
00000380: 0565 f03d 0bf0 44bf d48e 193f a69d dbbe
00000390: fc18 67bf 40a7 27bf b832 2dbf e6f5 b3be
000003a0: 14bd b8be 1b00 333f e641 3abf f230 3b3f
000003b0: 3427 5b3f 3aa9 33bf 019c 3dbf 1f6c d63d
000003c0: 335b dd3e ce19 1b3f a66f 8f3e 9537 093f
000003d0: dd0b 083f 60de 173e c3b0 f3be 13d7 e0be
000003e0: ffad 25bf b628 00be 549e 413f 6411 6bbe
000003f0: ef7f 88bd 0d71 e6bd 7594 c4be 2509 743f

gemm0_bias f4 [95]
0.21465164 -0.9427321 0.8605877 -0.7626634 -0.2264903 0.6269933 -0.3288899 -0.44137314
0.18428364 0.8880807 -0.4310155 -0.6838248 0.5745408 0.3207159 -0.54232806 0.19208683
0.67166746 -0.80417573 -0.94392604 0.7235851 -0.31816953 0.85173255 -0.8319016 -0.14004548
-0.45357245 -0.74050236 0.8783421 0.31179616 -0.98690194 -0.4867608 -0.25733694 0.81906986
0.9821496 0.89564097 0.30427593 0.7452953 -0.19713525 -0.8804684 0.530123 0.8672192
0.9883404 -0.50609267 -0.5403621 -0.23537238 0.9765388 -0.056657556 -0.34238178 -0.51549447
0.19474563 -0.7189799 0.048505437 -0.7938147 0.43574855 0.66795784 0.9284749 0.99813235
-0.9861482 0.980813 -0.31637892 0.3368541 -0.006557594 0.13060968 -0.5276173 -0.35024124
-0.54328305 0.4638729 0.7130323 0.39057234 0.4433264 0.56519926 0.38801616 0.92019963
0.46616232 0.7619032 0.18588677 0.34123683 0.97811365 0.88187474 0.08622846 0.2991891
-0.46743536 -0.81146884 -0.5232955 -0.0441208 0.068303846 -0.11803703 0.6890193 -0.05533504
0.2674453 -0.6094767 -0.1053306 -0.1662801 -0.058764167 -0.6308392 -0.58036613
00000000: a4cd 5b3e e456 71bf 7a4f 5c3f e93d 43bf
00000010: 13ed 67be a282 203f 4264 a8be a9fb e1be
00000020: dab4 3c3e 4259 633f 10ae dcbe 240f 2fbf
00000030: 1b15 133f e034 a43e 03d6 0abf 69b2 443e
00000040: 66f2 2b3f 76de 4dbf 23a5 71bf e03c 393f
00000050: 1ee7 a2be 250b 5a3f 81f7 54bf 1568 0fbe
00000060: a63a e8be 9091 3dbf 07db 603f bfa3 9f3e
00000070: 9ba5 7cbf b638 f9be abc1 83be 90ae 513f
00000080: 286e 7b3f ba48 653f 0eca 9b3e accb 3e3f
00000090: d3dd 49be 6166 61bf 24b6 073f 1402 5e3f
000000a0: e003 7d3f 4a8f 01bf 2c55 0abf 7505 71be
000000b0: 72fe 793f c111 68bd aa4c afbe 72f7 03bf
000000c0: 666b 473e 110f 38bf a3ad 463d 7137 4bbf
000000d0: 6f1a df3e 49ff 2a3f 88b0 6d3f 9a85 7f3f
000000e0: 3574 7cbf 9016 7b3f 6bfc a1be 2478 ac3e
000000f0: 16e1 d6bb 8bbe 053e ed11 07bf d252 b3be
00000100: 9914 0bbf c080 ed3e 4989 363f 19f9 c73e
00000110: aefb e23e e6b0 103f 0eaa c63e 3492 6b3f
00000120: d4ac ee3e 170c 433f 1a59 3e3e 98b6 ae3e
00000130: a865 7a3f 8bc2 613f 8c98 b03d 502f 993e
00000140: b053 efbe 6cbc 4fbf b2f6 05bf 03b8 34bd
00000150: e3e2 8b3d 66bd f1bd 9263 303f ffa6 62bd
00000160: 97ee 883e aa06 1cbf 92b7 d7bd 5545 2abe
00000170: b2b2 70bd ae7e 21bf e092 14bf
