sample models/60_layer_randomized_model.onnx (onnx, 982056 bytes, 14 tensors)

convtranspose0_weight f4 [128, 60, 1, 1]
0.41529262 0.31077206 -0.4558145 -0.07112605 0.47399038 -0.75116336 -0.63021505 -0.49373904
0.9884627 -0.37542272 -0.00895917 -0.5898548 -0.30864438 -0.6800264 0.70636326 0.27713713
-0.4063273 0.14139196 -0.87480336 0.6049832 -0.40550888 -0.4571821 0.6458373 0.65609914
-0.6906586 -0.73002183 0.7422004 -0.57549775 0.18601173 -0.104467034 -0.34085765 -0.5339489
-0.9618136 0.8301863 0.80051064 -0.76311004 -0.3116103 -0.34773716 -0.71863574 -0.6094125
-0.27567163 -0.991143 -0.014581446 -0.90971386 0.050739802 -0.60412085 0.5226191 0.36140648
-0.8183455 0.98793143 0.048756845 -0.11001312 0.6821938 -0.48237088 0.7619066 -0.1687694
-0.91033095 -0.7454238 0.229653 0.19543605 0.016732153 -0.057188194 -0.46409234 0.63624144
-0.56831616 0.54325134 0.87304485 0.37336484 -0.43618745 -0.36774087 -0.2334754 0.40458027
-0.2960401 0.097604334 -0.06439493 -0.8431569 -0.040214233 -0.6445109 -0.862872 0.29259038
-0.02973718 0.93938386 -0.53419644 -0.25121593 -0.5195142 0.0068105855 -0.9068979 -0.8398697
0.3827033 0.4635533 0.861347 -0.2693668 -0.91795576 0.45243472 0.5234898 -0.6341555
-0.33279178 0.8616831 -0.7404627 0.36542642 -0.32743472 0.42754555 -0.5176106 0.49334356
0.23323049 -0.5252433 -0.8808749 0.26731664 0.9615707 -0.37946576 -0.9122433 0.72463745
-0.15141404 0.931655 0.12851377 -0.16406639 0.8384114 0.57297504 -0.85205877 0.91584325
-0.8962834 0.48472285 -0.7722068 0.42431912 -0.578737 0.29405057 -0.2495844 -0.9988195
-0.5593782 -0.9500159 -0.19449288 0.35074493 0.7678836 -0.851972 0.1275729 -0.6919143
0.5601367 -0.33739957 -0.2719279 -0.16461135 -0.09170489 -0.8717044 -0.89680773 0.47639865
0.3757711 -0.51624185 0.9363093 0.02786119 0.2130224 -0.5868885 -0.56091726 0.5531038
0.79771787 -0.27819476 -0.11070087 0.45636484 0.80785483 -0.0765216 0.27699155 -0.035822906
-0.66828823 0.3301572 0.5741367 -0.06954566 -0.10387154 -0.008817425 -0.3660087 -0.33040595
-0.6478388 0.6110987 0.0836535 0.5252447 0.9694269 -0.73574376 0.05202643 -0.89216095
-0.77229524 0.57167214 -0.8062012 0.37112638 -0.9964773 -0.69850534 0.6486893 -0.325233
0.27521116 0.22473967 0.9290464 -0.17910664 -0.43689343 -0.43559384 -0.19425683 0.9726153
-0.98859674 -0.8346953 -0.56736714 -0.9815753 0.23378229 0.70555604 -0.06913345 -0.70526326
-0.5401243 0.47908208 -0.90005726 -0.28632358 -0.18781187 0.7047752 -0.77495533 -0.8807341
-0.44438085 -0.5985303 -0.88960576 0.58173907 -0.85812646 -0.46917018 0.6867034 0.85718423
-0.36562556 0.13443881 0.33782628 -0.99784815 -0.7981079 -0.7927523 0.522852 0.14482634
0.4643211 0.25874785 -0.6593226 -0.7863978 0.48062488 -0.7090132 -0.7060498 0.44867042
0.023907194 -0.98249865 0.44268435 0.03825904 0.36213422 0.014444733 -0.58739245 -0.5676858
0.9560797 -0.123004824 0.53595906 0.015287786 -0.022228256 -0.045982905 -0.08687272 0.03816548
0.17840452 0.85642356 -0.7683553 0.9187971 -0.9326657 -0.2723002 0.6479557 -0.5023994
00000000: 3ca1 d43e 841d 9f3e 8560 e9be 89aa 91bd
00000010: deae f23e 3e4c 40bf c655 21bf 5dcb fcbe
00000020: e40b 7d3f 6837 c0be 7cc9 12bc b900 17bf
00000030: a306 9ebe 3616 2ebf 39d4 343f ebe4 8d3e
00000040: 220a d0be 0ec9 103e 1df3 5fbf 2ee0 1a3f
00000050: dc9e cfbe c613 eabe 9855 253f 1df6 273f
00000060: 01cf 30bf b6e2 3abf d800 3e3f d253 13bf
00000070: dc79 3e3e d0f2 d5bd e584 aebe e0b0 08bf
00000080: 6b39 76bf 1787 543f 44ee 4c3f 2e5b 43bf
00000090: 638b 9fbe 9b0a b2be 83f8 37bf 7502 1cbf
000000a0: d524 8dbe 8cbb 7dbf 04e7 6ebc 02e3 68bf
000000b0: 8ad4 4f3d aaa7 1abf 5eca 053f 450a b93e
000000c0: 177f 51bf 13e9 7c3f 42b5 473d 8f4e e1bd
000000d0: 41a4 2e3f 51f9 f6be 500c 433f e3d1 2cbe
000000e0: 730b 69bf 18d4 3ebf 282a 6b3e 6320 483e
000000f0: de11 893c 2b3e 6abd 839d edbe b8e0 223f
00000100: 2b7d 11bf 8512 0b3f de7f 5f3f ad29 bf3e
00000110: f653 dfbe 8848 bcbe 2d14 6fbe 2525 cf3e
00000120: 9192 97be c8e4 c73d 7de1 83bd 21d9 57bf
00000130: aeb7 24bd abfe 24bf 2ee5 5cbf 68ce 953e
00000140: 639b f3bc 767b 703f 19c1 08bf 609f 80be
00000150: e2fe 04bf 552b df3b 762a 68bf b301 57bf
00000160: b0f1 c33e dc56 ed3e 3d81 5c3f 72ea 89be
00000170: 26ff 6abf 86a5 e73e 6d03 063f 0458 22bf
00000180: af63 aabe 4397 5c3f f78e 3dbf 2c19 bb3e
00000190: 86a5 a7be 40e7 da3e 2182 04bf 8797 fc3e
000001a0: f9d3 6e3e 5876 06bf 0481 61bf badd 883e
000001b0: 7f29 763f 5649 c2be c788 69bf d781 393f
000001c0: 480c 1bbe f180 6e3f 1d99 033e 0501 28be
000001d0: 21a2 563f 7eae 123f 8620 5abf b474 6a3f
000001e0: d472 65bf 982d f83e 58af 45bf 5b40 d93e
000001f0: 1c28 14bf cc8d 963e 0e93 7fbe a2b2 7fbf
00000200: 6933 0fbf 3e34 73bf 2429 47be d794 b33e
00000210: 0594 443f d61a 5abf 78a2 023e 4c21 31bf
00000220: 1e65 0f3f a3bf acbe 223a 8bbe e18f 28be
00000230: c6cf bbbd 0528 5fbf 3195 65bf 86ea f33e
00000240: 1265 c03e 6d28 04bf f7b1 6f3f 263d e43c
00000250: 8b22 5a3e 533e 16bf 4698 0fbf 3698 0d3f
00000260: 3d37 4c3f 8b6f 8ebe 23b7 e2bd a7a8 e93e
00000270: 93cf 4e3f 5bb7 9cbd d6d1 8d3e 0abb 12bd
00000280: f014 2bbf 5d0a a93e 9ffa 123f f46d 8ebd
00000290: 9aba d4bd f676 10bc 7e65 bbbe f82a a9be
000002a0: c3d8 25bf f770 1c3f 8752 ab3d 7076 063f
000002b0: 5c2c 783f b459 3cbf aa19 553d a964 64bf
000002c0: 24b5 45bf 1b59 123f 3463 4ebf 4704 be3e
000002d0: 2319 7fbf 3fd1 32bf 8110 263f f184 a6be
000002e0: 7ae8 8c3e 2822 663e fcd5 6d3f bb67 37be
000002f0: 7fb0 dfbe 2806 dfbe 43eb 46be 51fd 783f
00000300: ad14 7dbf 97ae 55bf f93e 11bf 8548 7bbf
00000310: a064 6f3e 529f 343f d795 8dbd 228c 34bf
00000320: 9645 0abf 3f4a f53e 276a 66bf 0199 92be
00000330: c151 40be 266c 343f 7963 46bf ca77 61bf
00000340: e385 e3be 4839 19bf 34bd 63bf daec 143f
00000350: 2dae 5bbf 1337 f0be cbcb 2f3f 6d70 5b3f
00000360: 4633 bbbe 54aa 093e 91f7 ac3e fa72 7fbf
00000370: cd50 4cbf d1f1 4abf a1d9 053f 5b4d 143e
00000380: 7fbb ed3e 997a 843e 5ec9 28bf 5e51 49bf
00000390: 7714 f63e e481 35bf aebf 34bf 21b8 e53e
000003a0: 05d9 c33c 0885 7bbf 86a7 e23e 83b5 1c3d
000003b0: a869 b93e 9aa9 6c3c 5a5f 16bf db53 11bf
000003c0: a4c1 743f f4e9 fbbd 9d34 093f 9f79 7a3c
000003d0: 0818 b6bc 9258 3cbd 53ea b1bd 6853 1c3d
000003e0: adaf 363e 933e 5b3f efb2 44bf 4936 6b3f
000003f0: 2ec3 6ebf ef6a 8bbe 6de0 253f 3f9d 00bf

conv0_weight f4 [36, 300, 3, 3]
-0.33047095 -0.8978118 -0.12639983 0.5596148 0.53342015 -0.64068186 0.44986364 0.516628
0.30238587 -0.40095735 -0.026442586 0.7841842 -0.81566256 0.478544 0.7993001 -0.51979995
-0.87243974 0.79644036 -0.57564956 -0.3967302 -0.25212142 -0.9314169 -0.7063966 0.56647706
0.477701 0.2815665 0.5167884 -0.4326417 -0.5033721 0.29261005 0.3653715 -0.27445757
0.5381704 -0.8312164 0.87224066 -0.145771 0.8726384 0.9895776 -0.4995175 0.22559103
-0.36558133 -0.98481935 0.34705952 -0.19687432 -0.433084 0.90785027 -0.4975754 0.85248053
-0.80962145 -0.808849 0.35331547 0.75574744 0.5243556 0.30066332 0.6005195 -0.54553586
0.57888436 0.9301457 -0.2603735 0.009090363 0.4956505 -0.7248609 -0.6362078 0.25960943
-0.9056712 -0.48746365 0.8489216 0.10661705 -0.6873416 0.6598553 -0.65319705 0.99343586
0.034970578 0.3438671 0.24453789 -0.71539676 -0.31627944 0.1868655 0.1901814 -0.35256636
-0.006961739 -0.8512527 0.39181986 0.310626 -0.008304023 0.5712716 -0.27579892 0.25390315
0.022404023 -0.07549992 -0.3494088 -0.6701559 -0.10130388 -0.5115072 0.2893443 -0.7366469
-0.22573605 0.275269 0.41472918 0.19424497 0.7195565 -0.6801192 -0.59805506 0.7115888
-0.18926314 0.6962269 0.051586468 -0.97607845 0.12947404 -0.55008745 0.350917 -0.35657194
-0.7292534 0.9505432 0.5678109 -0.56246436 -0.4989772 -0.09735172 0.90805674 0.13949883
-0.24352254 0.6848837 -0.84984875 0.8129639 -0.53689903 0.21723223 -0.6011701 -0.09583497
-0.46886563 -0.12051827 0.054839436 0.6201716 -0.27625278 -0.74219763 0.7122963 -0.3334825
-0.70743334 0.46673486 -0.6536023 0.13502344 -0.8264374 0.7875128 0.11333607 -0.49616814
0.18310463 -0.24185027 -0.89102143 -0.75326943 -0.96127677 -0.71522045 0.7943472 -0.078728706
0.8001258 0.3529367 -0.35212997 0.6313143 0.084685296 -0.15931177 -0.020516599 -0.30613926
-0.90532106 -0.15635623 -0.7667848 -0.058886386 0.2315612 -0.16136953 -0.663758 -0.43438694
0.036807556 -0.9010942 -0.19457747 -0.05846192 -0.1774236 0.39579332 0.82619005 0.34898925
0.36061966 -0.507566 0.9950116 -0.8876102 0.024138749 0.006604458 -0.89729786 -0.097692914
-0.33302596 -0.78156865 0.22411303 -0.0919889 -0.2988631 -0.32089224 0.5694256 0.9496329
-0.41438457 0.35503107 0.8791917 0.42154765 0.8338923 -0.97266155 -0.056310758 -0.7795336
0.5502381 -0.29938143 -0.0722901 -0.10386782 -0.8634949 -0.5710674 0.32020465 -0.43071228
0.30104813 0.20803712 0.7138908 -0.22176611 -0.39770225 -0.43582058 0.86728853 -0.5191309
-0.8165876 -0.21018131 -0.90581155 -0.50566417 -0.83013046 -0.5963348 0.79836804 0.42547342
0.9142134 0.817618 -0.90751123 -0.9854429 -0.9358907 0.31166562 -0.9388628 -0.6795543
-0.74338204 0.023681058 0.831223 0.1947772 -0.48764262 -0.849563 0.78222954 -0.47959936
0.69494945 0.65796006 -0.3836131 -0.40404233 -0.4527178 0.39820895 0.381629 0.4316218
0.87054366 0.81317854 0.46282554 0.47506925 0.68649 -0.1282937 0.23728968 -0.6095934
00000000: 7d33 a9be fed6 65bf f56e 01be ea42 0f3f
00000010: 398e 083f ba03 24bf 8754 e63e bc41 043f
00000020: 52d2 9a3e 484a cdbe 1f9e d8bc 4cc0 483f
00000030: 43cf 50bf b803 f53e ee9e 4c3f 9c11 05bf
00000040: 3658 5fbf 84e3 4b3f c55d 13bf 3920 cbbe
00000050: 0f16 81be 5771 6ebf 68d6 34bf a404 113f
00000060: 3a95 f43e 7c29 903e 3f4c 043f 3783 ddbe
00000070: fedc 00bf fcd0 953e f911 bb3e b485 8cbe
00000080: 89c5 093f 99ca 54bf 2a4b 5f3f fe44 15be
00000090: 3b65 5f3f f554 7d3f c2c0 ffbe 5601 673e
000000a0: 7a2d bbbe 1f1d 7cbf c9b1 b13e 6c99 49be
000000b0: 30bd ddbe e068 683f 34c2 febe 2a3c 5a3f
000000c0: 5a43 4fbf ba10 4fbf c4e5 b43e aa78 413f
000000d0: 2b3c 063f 8bf0 993e a5bb 193f 3da8 0bbf
000000e0: c431 143f 071e 6e3f ad4f 85be bfef 143c
000000f0: e7c5 fd3e 7c90 39bf 84de 22bf 87eb 843e
00000100: 11da 67bf d694 f9be ed52 593f 0a5a da3d
00000110: 9ef5 2fbf 47ec 283f ec37 27bf d051 7e3f
00000120: 4f3d 0f3d 590f b03e 2468 7a3e 3e24 37bf
00000130: 61ef a1be ab59 3f3e eabe 423e 9483 b4be
00000140: 4d1f e4bb b2eb 59bf 9d9c c83e 5f0a 9f3e
00000150: 990d 08bc db3e 123f 8435 8dbe 98ff 813e
00000160: a488 b73c b49f 9abd b6e5 b2be 568f 2bbf
00000170: 6978 cfbd 23f2 02bf f024 943e e494 3cbf
00000180: 5a27 67be 0ff0 8c3e 6257 d43e 27e8 463e
00000190: db34 383f 4b1c 2ebf 231a 19bf af2a 363f
000001a0: 32ce 41be ed3b 323f 554c 533d 47e0 79bf
000001b0: d894 043e 88d2 0cbf 65ab b33e 9990 b6be
000001c0: 5ab0 3abf cd56 733f 0e5c 113f aafd 0fbf
000001d0: f179 ffbe 5760 c7bd 6876 683f c8d8 0e3e
000001e0: f95d 79be 8a54 2f3f b08f 59bf 671e 503f
000001f0: 3772 09bf 2072 5e3e 49e6 19bf 2045 c4bd
00000200: 280f f0be 48d2 f6bd 519f 603d 91c3 1e3f
00000210: 0171 8dbe aa00 3ebf 0d59 363f 38be aabe
00000220: 5a1a 35bf dff7 ee3e 7b52 27bf 9643 0a3e
00000230: 6791 53bf 709a 493f be1c e83d c009 febe
00000240: c87f 3b3e 99a7 77be fb19 64bf 44d6 40bf
00000250: 3c16 76bf b018 37bf 575a 4b3f 843c a1bd
00000260: 0bd5 4c3f 1fb4 b43e 614a b4be d09d 213f
00000270: 7c6f ad3d a022 23be 6d12 a8bc 49be 9cbe
00000280: 1fc3 67bf d91b 20be 024c 44bf da32 71bd
00000290: 611e 6d3e 0e3e 25be 0bec 29bf f767 debe
000002a0: 85c3 163d 1cae 66bf 513f 47be c475 6fbd
000002b0: 88ae 35be 6ca5 ca3e 3181 533f b8ae b23e
000002c0: 24a3 b83e d8ef 01bf 15b9 7e3f 6c3a 63bf
000002d0: a0be c53c 366a d83b 50b5 65bf 3913 c8bd
000002e0: 6182 aabe e214 48bf e37d 653e ad64 bcbd
000002f0: 9604 99be fd4b a4be e0c5 113f 241b 733f
00000300: 372a d4be a2c6 b53e b512 613f 18d5 d73e
00000310: f779 553f 5900 79bf 1ca6 66bd 848f 47bf
00000320: 67dc 0c3f 8648 99be d50c 94bd a7b8 d4bd
00000330: 000e 5dbf 7931 12bf ddf1 a33e 5286 dcbe
00000340: fb22 9a3e af07 553e 8cc1 363f a816 63be
00000350: a19f cbbe e023 dfbe 9f06 5e3f c3e5 04bf
00000360: e30b 51bf c539 57be 44e3 67bf 3573 01bf
00000370: 6e83 54bf 66a9 18bf d961 4c3f a7d7 d93e
00000380: e409 6a3f 6a4f 513f a852 68bf fc45 7cbf
00000390: 8896 6fbf a392 9f3e 5059 70bf 45f7 2dbf
000003a0: 494e 3ebf c7fe c13c 08cb 543f ad73 473e
000003b0: 4bac f9be f67c 59bf 3240 483f 0c8e f5be
000003c0: 35e8 313f 1270 283f f068 c4be a3de cebe
000003d0: a1ca e7be 0be2 cb3e e064 c33e 88fd dc3e
000003e0: f3db 5e3f 782c 503f 78f7 ec3e 473c f33e
000003f0: cfbd 2f3f 6c5f 03be 11fc 723e 500e 1cbf

resize0_scale f4 [4]
1.0 1.0 3.0 0.5
00000000: 0000 803f 0000 803f 0000 4040 0000 003f

conv1_weight f4 [60, 96, 3, 3]
-0.09535243 0.19470526 0.10012388 0.8166102 -0.99881905 0.09991892 -0.7846066 -0.031258706
0.114165075 -0.121273994 -0.1668444 0.3026399 0.53658444 0.16603851 -0.45711228 -0.44490242
-0.11508737 -0.27955028 0.7732041 0.0430472 0.12749273 -0.12804227 -0.0058833617 0.40777162
0.6928118 -0.5259849 -0.39369437 -0.53460306 0.7219482 -0.80837476 -0.8061675 0.17113163
0.14802152 -0.15806925 0.21835123 -0.35874456 0.19852374 -0.4353483 0.92464244 -0.41651958
-0.42807212 0.07233955 0.4461675 -0.92412424 -0.6986846 0.62218946 0.9771344 0.8618035
-0.65218884 0.02595739 -0.17483248 0.110280745 -0.2742015 -0.5670311 -0.15466344 0.96416396
0.8695559 -0.23640688 0.7939682 -0.11040894 -0.8986345 0.83515316 0.38279724 -0.5263939
0.2734231 0.5610562 -0.06534065 0.581495 0.109217286 0.6548267 0.9385673 0.7220085
0.28875807 0.36700568 0.57167804 -0.77770555 0.9056894 0.9573159 -0.7780013 0.49462882
-0.3772658 -0.08352178 -0.6357381 -0.65848196 0.9275128 0.11289922 0.48149174 0.61577797
0.4989048 0.5762225 0.23021701 -0.14772731 -0.9414117 -0.9795819 -0.25570878 -0.44620275
-0.20177947 0.8738386 0.7096837 -0.34675863 -0.26233274 -0.65827954 -0.81269395 -0.9687048
-0.44914785 0.081006765 0.24344243 0.55062103 0.2588954 0.5847066 0.9205922 0.87574863
-0.45185137 -0.9772529 0.11020794 -0.8019924 0.85910386 -0.27030122 -0.7229033 -0.5021806
-0.2856395 0.095492676 -0.774524 0.98797613 -0.7788616 -0.21402444 0.6813617 -0.6875299
-0.09509084 0.36592534 0.6287729 -0.40314826 -0.3919729 0.6527697 0.739298 -0.95725113
0.2692313 -0.89457506 0.69383055 0.5462161 -0.9650849 0.5838754 0.6170386 0.042849075
-0.8056488 0.6219631 -0.42689607 0.9319961 -0.97610915 -0.2198125 -0.40230653 0.17844379
-0.095241964 -0.03541432 -0.08527932 -0.3120019 -0.55465454 -0.51575637 0.25958416 0.15097855
0.5974351 -0.37221912 -0.55299103 0.41007522 0.74496704 0.29455632 -0.18650886 0.72994584
0.17300445 0.3884422 -0.61899745 -0.87777543 -0.19571546 -0.7500101 0.0114627015 -0.19382961
0.35469666 -0.8710408 -0.37412852 0.5027734 0.15992497 -0.58256793 0.56429505 0.49537265
0.6988112 -0.32735345 -0.2966573 -0.58118963 0.0030768462 -0.28973278 0.6734024 0.08495735
-0.7221271 0.8855101 -0.8208963 -0.2651314 0.120687686 0.7251647 0.233364 -0.51416546
0.5092076 0.65444463 0.10079788 0.17436385 0.13357657 -0.9242872 -0.040423095 -0.67981535
-0.085928656 0.96194494 0.6214853 -0.6838325 -0.4298315 0.24608324 0.6625396 0.2034
0.52769065 0.5958377 -0.24843732 -0.088387564 0.76856047 -0.29270834 0.21322104 -0.6161042
0.7898742 0.5774734 -0.9345557 -0.16597016 0.4829328 -0.4596502 -0.1743035 0.8037129
-0.7316013 -0.247258 0.6361323 0.08610415 0.27921808 -0.47833154 0.056575283 -0.54145277
-0.869575 0.76692706 -0.67993027 0.41386405 -0.21374677 -0.8645641 0.29713044 0.05556589
-0.28589806 -0.9685445 -0.089837305 0.19660051 -0.7687304 0.15026972 -0.89077073 -0.46713305
00000000: 2348 c3bd d160 473e c00d cd3d 5e0d 513f
00000010: 9bb2 7fbf 4aa2 cc3d fadb 48bf 2109 00bd
00000020: 61cf e93d 805e f8bd 42d9 2abe 9ef3 9a3e
00000030: 995d 093f 0006 2a3e 9f0a eabe 40ca e3be
00000040: edb2 ebbd 3721 8fbe b4f0 453f 4352 303d
00000050: 748d 023e 831d 03be 37c9 c0bb 71c7 d03e
00000060: 1d5c 313f f2a6 06bf 4f92 c9be bfdb 08bf
00000070: 99d1 383f a6f1 4ebf fe60 4ebf 213d 2f3e
00000080: f492 173e e8dc 21be 7797 5f3e 5ead b7be
00000090: cf49 4b3e f9e5 debe 5eb5 6c3f 0e42 d5be
000000a0: 452c dbbe c226 943d 1170 e43e 6893 6cbf
000000b0: fedc 32bf cf47 1f3f 7b25 7a3f 279f 5c3f
000000c0: d9f5 26bf 98a4 d43c 4907 33be dfda e13d
000000d0: 2464 8cbe f328 11bf 1860 1ebe 73d3 763f
000000e0: 379b 5e3f a514 72be 8041 4b3f 151e e2bd
000000f0: e90c 66bf 99cc 553f 00fe c33e c0c1 06bf
00000100: 1dfe 8b3e 61a1 0f3f 52d1 85bd dbdc 143f
00000110: 50ad df3d b9a2 273f f245 703f 8dd5 383f
00000120: 19d8 933e 2be8 bb3e 7e59 123f b617 47bf
00000130: 43db 673f a812 753f 182b 47bf fd3f fd3e
00000140: fc28 c1be 780d abbd bbbf 22bf 4692 28bf
00000150: 7b71 6d3f b537 e73d 1686 f63e a0a3 1d3f
00000160: 7370 ff3e 5183 133f 02be 6b3e d445 17be
00000170: 5b00 71bf e1c5 7abf 43ec 82be b074 e4be
00000180: 479f 4ebe e3b3 5f3f d5ad 353f 598a b1be
00000190: 7a50 86be 0285 28bf b60c 50bf 0afd 77bf
000001a0: b5f6 e5be e0e6 a53d f948 793e 80f5 0c3f
000001b0: f08d 843e 55af 153f eeab 6b3f 1031 603f
000001c0: 1059 e7be 3f2d 7abf b3b4 e13d 604f 4dbf
000001d0: 3bee 5b3f ec64 8abe 3110 39bf e88e 00bf
000001e0: 573f 92be aa91 c33d 3447 46bf 01ec 7c3f
000001f0: 7963 47bf 3929 5bbe b86d 2e3f f601 30bf
00000200: fcbe c2bd 915a bb3e 43f7 203f 7369 cebe
00000210: acb0 c8be ea1b 273f a242 3d3f 690e 75bf
00000220: afd8 893e df02 65bf e19e 313f d1d4 0b3f
00000230: ce0f 77bf dc78 153f 3ef6 1d3f 8382 2f3d
00000240: 003f 4ebf f938 1f3f 1f92 dabe 4c97 6e3f
00000250: 4ae2 79bf 8716 61be 1ffb cdbe f8b9 363e
00000260: 380e c3bd 9b0e 11bd eda6 aebd b7be 9fbe
00000270: d7fd 0dbf 9c08 04bf 37e8 843e 1f9a 1a3e
00000280: 82f1 183f 8193 bebe d290 0dbf 61f5 d13e
00000290: 29b6 3e3f 16d0 963e 2efc 3ebe bbdd 3a3f
000002a0: 1428 313e e5e1 c63e 9e76 1ebf e4b5 60bf
000002b0: a269 48be a900 40bf 0ece 3b3c 457b 46be
000002c0: cd9a b53e 88fc 5ebf c68d bfbe c2b5 003f
000002d0: 5fc3 233e 2c23 15bf a475 103f 7ca1 fd3e
000002e0: 4ae5 323f df9a a7be 77e3 97be d8c8 14bf
000002f0: eaa4 493b db57 94be 1a64 2c3f 1efe ad3d
00000300: 52dd 38bf cab0 623f 4326 52bf 4ebf 87be
00000310: 1b2b f73d 65a4 393f f9f6 6e3e 59a0 03bf
00000320: 6e5b 023f af89 273f 1e6f ce3d 708c 323e
00000330: 4cc8 083e 169e 6cbf b092 25bd 6108 2ebf
00000340: 5dfb afbd 0642 763f a919 1f3f a60f 2fbf
00000350: e012 dcbe 3ffd 7b3e 329c 293f 1748 503e
00000360: bc16 073f d288 183f 5a66 7ebe 8a04 b5bd
00000370: 61c0 443f dedd 95be 9e56 5a3e 01b9 1dbf
00000380: 3235 4a3f 4cd5 133f 0b3f 6fbf 15f4 29be
00000390: f842 f73e 4557 ebbe 9e7c 32be 21c0 4d3f
000003a0: 394a 3bbf 3331 7dbe 91d9 223f 5f57 b03d
000003b0: acf5 8e3e dfe7 f4be 7cbb 673d a69c 0abf
000003c0: 789c 5ebf 5555 443f e90f 2ebf fde5 d33e
000003d0: 6fe0 5abe 1354 5dbf 7b21 983e 0f99 633d
000003e0: 3b61 92be 88f2 77bf 9ffc b7bd a551 493e
000003f0: 84cb 44bf 4ee0 193e 8d09 64bf 102c efbe

convtranspose1_weight f4 [60, 36, 1, 1]
0.9513194 0.032985136 -0.3669111 -0.63701963 -0.7703112 0.99635524 -0.8484801 0.20518647
-0.22559573 0.7835938 0.24656174 0.5390776 0.06553513 0.30995062 0.22164868 0.27149323
-0.09482898 0.71454734 0.9039593 -0.25411487 -0.17139547 -0.9215904 -0.026184792 -0.04418642
0.46589807 0.33484796 -0.10948393 -0.39508057 0.33036852 0.40835023 -0.04411804 -0.16638519
-0.15712166 0.78711087 0.8852913 0.47127396 -0.5692576 -0.44141695 -0.8581783 0.27916062
-0.7775067 0.45653337 0.4945275 -0.26745033 0.28738695 0.023366211 0.29175934 0.6948251
0.9836409 0.23509814 -0.4423868 -0.059917025 -0.0073141637 0.3081321 -0.9078791 -0.75568604
-0.70025367 0.68747294 -0.42191058 -0.19082762 0.69239503 -0.9176339 -0.43118256 -0.8915291
0.7754419 -0.77180684 0.12501216 -0.10702304 0.678903 0.5477457 0.11346546 -0.98004293
-0.6110275 -0.59742254 0.64649194 0.42026326 -0.32078183 -0.45949978 -0.3019802 -0.30765963
0.6497968 0.94165784 0.09718422 -0.90734094 -0.8025997 -0.641491 -0.7708953 -0.6163897
0.21093993 0.26779354 -0.536511 0.7637116 0.09175506 -0.9371779 -0.61487824 0.5072154
0.09172387 0.110578574 0.8753513 -0.4953928 0.021532454 0.057438936 0.5078405 -0.4192973
-0.7414273 -0.042278465 -0.22953723 0.6611421 -0.03728185 -0.25683296 0.44658533 -0.21346053
-0.41634274 -0.5934351 -0.53576684 -0.32406402 -0.029797236 0.90191495 0.17787524 0.45966098
0.2833878 0.97830164 -0.6861275 -0.22335862 0.7706872 -0.6283199 -0.23269148 -0.27260673
0.34930405 0.5479561 0.14930807 0.7652988 -0.19224524 -0.6735208 0.7030698 -0.09416767
-0.40186682 0.64581144 -0.64428544 0.58503544 0.6054941 -0.32192054 -0.7918557 -0.8150473
0.77424806 -0.27655044 0.2918849 -0.74020916 -0.31389475 0.5169224 0.40393513 0.3769894
-0.83763236 0.015921246 -0.009995069 0.85161346 0.5481058 0.85845286 -0.5128337 0.8585498
0.26374197 0.46874416 -0.6914732 0.93647826 0.63561255 0.82740074 0.23598503 -0.21801117
-0.89932954 0.9611315 -0.53037304 0.026190355 -0.15389195 -0.9882655 -0.27921894 0.25184318
-0.91619295 0.14495814 0.56560177 0.47028974 -0.17712587 -0.3430543 -0.29806694 0.94537395
-0.17594992 0.9823556 0.2549824 -0.6878594 -0.5398128 0.9404029 0.055047017 -0.5413317
-0.92629 0.8372834 0.57170093 0.77637374 -0.0042614057 -0.73536533 0.5294404 -0.9546366
0.9290971 -0.449155 -0.9100905 0.58666 0.0723228 0.42577362 -0.5032167 0.6246829
-0.12622197 -0.994519 0.65125626 0.65886617 -0.5297857 -0.8320824 0.09656903 -0.8601498
-0.07557015 0.18629967 -0.077767 -0.7254232 0.81584525 0.51197135 0.50898874 -0.4614258
-0.880575 0.56161225 0.6837396 0.37458274 0.15513726 0.19293177 -0.025196988 -0.9385532
-0.41898176 -0.40146968 -0.9088577 0.42537013 -0.6036987 0.04404681 0.508896 0.62544286
0.5077522 0.91459215 -0.68994045 -0.016359085 0.72407335 0.8391344 -0.7494536 -0.25550422
0.2908015 -0.015325813 -0.112422675 -0.2981452 -0.9436536 0.97753316 0.17786904 -0.8381631
00000000: ab89 733f 6c1b 073d c6db bbbe b813 23bf
00000010: 1d33 45bf 2311 7f3f fe35 59bf 671c 523e
00000020: 9102 67be 9a99 483f ae7a 7c3e fd00 0a3f
00000030: 4837 863d d9b1 9e3e dff7 623e 2901 8b3e
00000040: b235 c2bd 93ec 363f e069 673f 581b 82be
00000050: 4b82 2fbe 59ed 6bbf 7d81 d6bc d2fc 34bd
00000060: 318a ee3e 3171 ab3e 1c39 e0bd 0048 cabe
00000070: 1026 a93e 4813 d13e 1eb5 34bd e160 2abe
00000080: 80e4 20be 1980 493f 73a2 623f d24a f13e
00000090: deba 11bf 6701 e2be 93b1 5bbf 24ee 8e3e
000000a0: ae0a 47bf bebe e93e b532 fd3e 40ef 88be
000000b0: 6224 933e 7f6a bf3c 7b61 953e 0fe0 313f
000000c0: e4cf 7b3f 91bd 703e 8680 e2be 8e6b 75bd
000000d0: a7ab efbb 7ec3 9d3e c46a 68bf a474 41bf
000000e0: d343 33bf 3afe 2f3f aa04 d8be 5168 43be
000000f0: cd40 313f 0eea 6abf f6c3 dcbe 403b 64bf
00000100: 5c83 463f 2295 45bf 3003 003e e52e dbbd
00000110: 96cc 2d3f 1039 0c3f 9460 e83d 18e4 7abf
00000120: 4c6c 1cbf aff0 18bf 7f80 253f bf2c d73e
00000130: 843d a4be 8e43 ebbe 269d 9abe 9085 9dbe
00000140: 1559 263f 7d10 713f 8508 c73d 7f47 68bf
00000150: 2d77 4dbf c138 24bf 6559 45bf b7cb 1dbf
00000160: a300 583e 3c1c 893e c958 09bf 9a82 433f
00000170: 14ea bb3d e4ea 6fbf a968 1dbf ded8 013f
00000180: b9d9 bb3d 0577 e23d 0617 603f 20a4 fdbe
00000190: d464 b03c 1745 6b3d d601 023f 23ae d6be
000001a0: 2ece 3dbf 2f2c 2dbd cf0b 6bbe 9c40 293f
000001b0: dab4 18bd 9c7f 83be d5a6 e43e 6695 5abe
000001c0: e02a d5be 5deb 17bf 0428 09bf b8eb a5be
000001d0: 5519 f4bc e6e3 663f ed24 363e af58 eb3e
000001e0: 3518 913e fa71 7a3f 0da6 2fbf 1fb8 64be
000001f0: c24b 453f 93d9 20bf ad46 6ebe 1c93 8bbe
00000200: fbd7 b23e da46 0c3f 37e4 183e 9fea 433f
00000210: f0db 44be dc6b 2cbf 62fc 333f fbda c0bd
00000220: 7dc1 cdbe e653 253f e4ef 24bf e2c4 153f
00000230: a901 1b3f c5d2 a4be 0eb7 4abf f1a6 50bf
00000240: 1f35 463f 0598 8dbe f071 953e 597e 3dbf
00000250: d0b6 a0be 0755 043f 96d0 ce3e c104 c13e
00000260: 136f 56bf 466d 823c 5cc2 23bc 5703 5a3f
00000270: a950 0c3f 91c3 5b3f 1249 03bf ebc9 5b3f
00000280: 3009 873e 3cff ef3e 6304 31bf 0abd 6f3f
00000290: 81b7 223f 89d0 533f 0fa6 713e 523e 5fbe
000002a0: 763a 66bf b70c 763f 87c6 07bf 288d d63c
000002b0: da95 1dbe f8fe 7cbf c9f5 8ebe 97f1 803e
000002c0: 9f8b 6abf e86f 143e 47cb 103f d1c9 f03e
000002d0: 7c60 35be d0a4 afbe 3b9c 98be 0704 723f
000002e0: 372c 34be a87b 7b3f 0e8d 823e 8e17 30bf
000002f0: 2c31 0abf 3fbe 703f fb78 613d b794 0abf
00000300: 5721 6dbf 3458 563f fe5a 123f 6ec0 463f
00000310: 43a3 8bbb e740 3cbf 6889 073f 1063 74bf
00000320: 4fd9 6d3f a5f7 e5be b1fb 68bf 5a2f 163f
00000330: fa1d 943d 00ff d93e cfd2 00bf 38eb 1f3f
00000340: 5540 01be cc98 7ebf bbb8 263f 74ab 283f
00000350: 09a0 07bf 5a03 55bf fcc5 c53d c732 5cbf
00000360: 86c4 9abd 57c5 3e3e 4e44 9fbd 56b5 39bf
00000370: 3cdb 503f 8e10 033f 164d 023f 0140 ecbe
00000380: 5d6d 61bf d2c5 0f3f 8f09 2f3f 4fc9 bf3e
00000390: 4ddc 1e3e e88f 453e ea69 cebc 0645 70bf
000003a0: c784 d6be 6f8d cdbe e6aa 68bf 1dca d93e
000003b0: ff8b 1abf 6e6a 343d 0247 023f 061d 203f
000003c0: 0cfc 013f b622 6a3f f09f 30bf 7d03 86bc
000003d0: df5c 393f 83d1 563f 31dc 3fbf 73d1 82be
000003e0: efe3 943e 1e19 7bbc dc3d e6bd 7da6 98be
000003f0: 4893 71bf 9d3f 7a3f 4d23 363e db91 56bf

resize1_scale f4 [4]
1.0 1.0 4.0 3.0
00000000: 0000 803f 0000 803f 0000 8040 0000 4040

resize2_scale f4 [4]
1.0 1.0 0.25 4.0
00000000: 0000 803f 0000 803f 0000 803e 0000 8040

convtranspose2_weight f4 [36, 9, 3, 3]
-0.13780323 -0.21281673 -0.48752716 0.35290793 0.7142156 -0.344828 -0.57437086 -0.55192524
-0.023873545 0.08115008 -0.58990115 -0.7374513 -0.7529084 -0.10006903 0.5923009 -0.49333742
-0.39576504 -0.56234854 -0.6223704 0.6253145 0.7351691 -0.16998951 0.11942457 -0.82623893
0.25529107 0.2950147 0.049549412 -0.721793 -0.43877998 0.30850828 -0.48514283 0.54015595
0.63253886 0.5735353 -0.0058906935 -0.2506527 0.87256956 -0.23724706 0.8646782 0.8576612
-0.48046115 0.99305123 -0.7580739 0.42014965 -0.85321915 0.6377051 -0.5968209 0.24115825
-0.5341286 0.19553344 0.99391943 0.5073111 -0.45001692 0.51777595 -0.60631025 0.9437629
-0.5682098 -0.6026108 0.3031024 0.94890606 0.3942774 -0.3717119 0.9678543 0.42164302
0.6468896 0.67739356 0.7142366 0.47672418 0.9218504 0.6580474 -0.9803721 -0.121804535
-0.9398904 0.9721861 0.6300638 0.9493141 -0.7226583 -0.054766234 0.9325428 -0.56227803
0.21767285 -0.82176095 -0.88371783 -0.2186373 0.3408782 -0.68522507 -0.5694929 0.709391
-0.71643823 0.0014844952 -0.22951937 -0.8889872 -0.57285595 -0.42350623 -0.601739 -0.6243132
-0.085084245 0.9664858 -0.14766432 -0.8192175 -0.4883084 -0.08166906 -0.8554311 0.6291388
0.45891863 -0.49216318 0.82565546 0.21469052 -0.07806914 0.45998964 -0.5304784 -0.93435156
0.9284775 -0.5729619 -0.63331103 0.33371735 0.8046251 -0.45417976 -0.721794 -0.10953177
0.84363115 -0.4397305 -0.29601508 0.5823255 0.38888812 0.13321847 -0.19901653 -0.55065805
-0.070464276 0.87729365 0.2728763 0.9547758 0.09762537 0.99732435 -0.52807045 0.99537235
-0.6792782 0.3196792 0.9467373 -0.4465125 -0.0050976356 -0.6363385 -0.45450068 0.4572671
-0.45742956 0.9369381 0.040568974 0.309973 0.96460396 0.7528308 -0.8878664 0.6225069
-0.06382367 0.16345075 0.9552838 -0.4061757 0.35443565 -0.44570342 -0.9335418 0.7607589
-0.7100474 -0.48978713 0.6158231 -0.095756195 -0.59975225 -0.8166622 0.5203208 0.25076416
0.29574656 -0.22717811 -0.27000064 0.538544 -0.112805456 0.9954251 -0.46923745 0.9198056
-0.7204209 -0.0059887366 0.22855294 0.8075618 0.8803731 0.8152722 -0.31839243 0.46036682
0.13191961 -0.8426099 0.20011738 -0.086013556 0.28471738 -0.5177554 0.9121442 0.8514333
0.5592463 0.14367536 -0.7632225 -0.2685064 -0.6125475 -0.94079274 0.6475361 -0.48091823
-0.8707681 -0.39686403 -0.5872424 0.39904785 -0.49336848 0.10131068 0.09592317 -0.569588
-0.47585025 0.4213199 -0.17444085 -0.7548136 0.8542939 -0.6777644 -0.058989536 0.20514473
0.27657592 0.27774516 -0.7282295 0.40562034 -0.345945 -0.17275473 -0.84439796 0.15166454
0.31246912 -0.5649297 0.87395483 0.42121032 -0.26166368 -0.3823726 0.41463855 -0.311279
-0.09653999 -0.8298233 -0.58421314 -0.28916642 -0.59200287 0.40745983 0.06485454 0.06482389
-0.32186207 0.8491508 0.16456833 -0.2611768 -0.3273168 0.043120116 0.6642867 -0.08402267
-0.3769352 -0.8916962 -0.54867256 -0.42746833 0.9997792 -0.41435772 0.56529087 0.43751168
00000000: 4a1c 0dbe a1ec 59be 299d f9be 59b0 b43e
00000010: d5d6 363f 4c8d b0be f809 13bf f94a 0dbf
00000020: 7492 c3bc 0332 a63d c303 17bf 9cc9 3cbf
00000030: 9bbe 40bf fef0 ccbd 08a1 173f b996 fcbe
00000040: b7a1 cabe 13f6 0fbf ab53 1fbf 9c14 203f
00000050: 0b34 3c3f bb11 2ebe de94 f43d 6584 53bf
00000060: 83b5 823e 2b0c 973e 53f4 4a3d 6dc7 38bf
00000070: c5a7 e0be ccf4 9d3e a464 f8be a947 0a3f
00000080: 11ee 213f 36d3 123f b806 c1bb 8d55 80be
00000090: b860 5f3f e5f0 72be 8d5b 5d3f af8f 5b3f
000000a0: 01ff f5be 9b38 7e3f 2211 42bf db1d d73e
000000b0: 926c 5abf a440 233f 41c9 18bf 30f2 763e
000000c0: a7bc 08bf eb39 483e 8171 7e3f 24df 013f
000000d0: 9e68 e6be f78c 043f 2637 1bbf 729a 713f
000000e0: 3376 11bf b444 1abf 3d30 9b3e 82eb 723f
000000f0: bade c93e 0651 bebe 4dc5 773f 98e1 d73e
00000100: 8f9a 253f aa69 2d3f 36d8 363f 3115 f43e
00000110: 63fe 6b3f cb75 283f aaf9 7abf a874 f9bd
00000120: a89c 70bf 30e1 783f dc4b 213f 4006 733f
00000130: 2200 39bf 8f52 60bd 20bb 6e3f 74f1 0fbf
00000140: a2e5 5e3e ed5e 52bf 553b 62bf 75e2 5fbe
00000150: 9687 ae3e e96a 2fbf 49ca 11bf a69a 353f
00000160: 7f68 37bf 6593 c23a 2007 6bbe aa94 63bf
00000170: b0a6 12bf cfd5 d8be 910b 1abf fdd2 1fbf
00000180: a640 aebd 9d6b 773f 5135 17be 3db8 51bf
00000190: 8f03 fabe 1c42 a7bd 88fd 5abf 3e0f 213f
000001a0: 62f7 ea3e d0fc fbbe 285e 533f d5d7 5b3e
000001b0: b7e2 9fbd c383 eb3e 6fcd 07bf aa31 6fbf
000001c0: b4b0 6d3f a2ad 12bf ac20 22bf 00dd aa3e
000001d0: e9fb 4d3f 408a e8be 7ec7 38bf 3152 e0bd
000001e0: 36f8 573f 5b24 e1be 4a8f 97be 4913 153f
000001f0: 581c c73e 6c6a 083e fdca 4bbe edf7 0cbf
00000200: 934f 90bd 5196 603f 71b6 8b3e 306c 743f
00000210: cfef c73d a650 7f3f a02f 07bf b9d0 7e3f
00000220: 2de5 2dbf feac a33e 605d 723f 499d e4be
00000230: 110a a7bb 14e7 22bf 50b4 e8be ea1e ea3e
00000240: 3534 eabe 2ddb 6f3f a72b 263d c8b4 9e3e
00000250: 49f0 763f 85b9 403f 364b 63bf 9d5c 1f3f
00000260: fcb5 82bd a25f 273e 7b8d 743f 43f6 cfbe
00000270: 9778 b53e 3d33 e4be 98fc 6ebf 18c1 423f
00000280: abc5 35bf 61c5 fabe 95a6 1d3f d31b c4bd
00000290: 5d89 19bf c610 51bf be33 053f 2964 803e
000002a0: 186c 973e 61a1 68be 863d 8abe 05de 093f
000002b0: 8c06 e7bd 2ed4 7e3f e43f f0be 6178 6b3f
000002c0: 816d 38bf 2a3d c4bb c809 6a3e 5fbc 4e3f
000002d0: 2260 613f aeb5 503f 5504 a3be 33b5 eb3e
000002e0: ef15 073e 48b5 57bf 92eb 4c3e e027 b0bd
000002f0: 7ac6 913e 9e8b 04bf 4882 693f 88f7 593f
00000300: c42a 0f3f a21f 133e 8d62 43bf ac79 89be
00000310: eacf 1cbf cbd7 70bf edc4 253f ea3a f6be
00000320: a8ea 5ebf c331 cbbe 8555 16bf 0050 cc3e
00000330: cb9a fcbe f97b cf3d 5e73 c43d 85d0 11bf
00000340: a5a2 f3be 3eb7 d73e 9fa0 32be 773b 41bf
00000350: 01b3 5a3f f881 2dbf 039f 71bd 7611 523e
00000360: 5c9b 8d3e 9d34 8e3e 406d 3abf 78ad cf3e
00000370: b41f b1be 9ee6 30be 772a 58bf f34d 1b3e
00000380: f4fb 9f3e 3c9f 10bf 81bb 5f3f e1a8 d73e
00000390: c8f8 85be 57c6 c3be 814b d43e f65f 9fbe
000003a0: c2b6 c5bd 4d6f 54bf fe8e 15bf 9f0d 94be
000003b0: 808d 17bf 939e d03e 75d2 843d 63c2 843d
000003c0: 1bcb a4be f261 593f 9a84 283e f7b8 85be
000003d0: 1196 a7be b89e 303d b10e 2a3f 1414 acbd
000003e0: a7fd c0be 3446 64bf ce75 0cbf 21dd dabe
000003f0: 88f1 7f3f b226 d4be e7b6 103f 8801 e03e

convtranspose3_weight f4 [9, 26, 3, 3]
-0.43396133 0.12197799 -0.8421955 0.5152145 -0.84087765 0.23406164 -0.5463641 0.24653693
0.7383854 0.758294 0.26810157 0.84251463 0.6893965 -0.056448456 0.31059337 -0.42448905
0.55167556 0.39762193 -0.07899149 -0.74798733 -0.7374258 -0.48521355 -0.8851011 -0.09253309
-0.49448758 0.71236956 -0.6658695 0.97366023 0.23279509 -0.89568675 -0.28495467 -0.30468774
-0.22875229 0.96933806 -0.5798364 0.8539584 -0.077965006 -0.97171605 0.057486128 0.4216111
0.9072802 0.81950366 -0.6530017 0.88675934 0.94649804 -0.48047975 0.8054386 -0.9570176
-0.11926336 0.70842177 -0.4330619 -0.03118449 0.25490838 0.60900205 0.987747 -0.8729912
0.109992065 0.4882204 0.26896167 0.30436477 -0.6955506 -0.59125066 -0.62647593 0.6039036
-0.015476877 -0.9584036 -0.26523322 -0.96118015 -0.7486936 0.13085073 -0.5027087 -0.315746
0.4974601 -0.036824144 0.017043386 0.2692884 0.8959354 -0.77504843 0.25868627 -0.687157
-0.7859396 0.5086225 0.90813756 -0.0056026555 0.023903912 0.47508323 -0.4128085 -0.19573835
0.9828977 0.014853803 0.11958067 -0.13511017 -0.28202784 0.42160413 0.22126603 -0.6095166
-0.72523874 -0.20961651 -0.510943 0.8455679 -0.0739173 0.14447631 0.8979017 -0.14780527
0.45930645 0.38754928 0.23343228 -0.43507606 0.6995228 0.22601992 -0.34361753 0.3879232
-0.4879313 0.94055396 0.7305666 0.90040684 -0.020870913 -0.85112035 -0.7544226 -0.8180762
-0.40121853 -0.1942638 -0.4343211 -0.7306512 0.21721804 -0.50397944 0.856409 -0.99307644
-0.18253762 -0.52317685 0.41832218 -0.4445227 -0.99685055 0.3551363 -0.47798705 0.7254986
0.16731955 -0.47507596 -0.32975882 -0.2567963 -0.5691532 -0.8014261 -0.12806205 -0.008837857
0.31682193 0.54530257 -0.5796873 0.33666164 -0.70620525 0.4649066 -0.83257955 -0.20463139
-0.2935385 -0.79600275 0.16260923 -0.9029726 -0.41368178 0.48096696 0.7396723 -0.91928935
-0.8138318 -0.436169 0.5500091 0.7149909 -0.4765599 0.84292734 0.24808794 0.10931572
-0.9019632 -0.7069139 0.9625698 -0.044978518 -0.935216 0.75695443 -0.4400645 -0.97158873
0.0045735757 -0.29794535 0.47140115 0.3954817 -0.39108044 -0.11219214 0.013348365 -0.20769002
0.09983742 0.93222046 -0.46202776 0.094766155 0.8126611 0.34723124 0.42982572 0.7228576
-0.026678713 0.1573053 -0.26419365 0.62003 -0.8555585 0.6318099 0.5621873 0.26384956
-0.66068804 -0.15453811 0.97412705 -0.28748015 0.32632327 0.5126643 -0.69535285 -0.08052374
-0.14402905 0.10658529 0.48412055 -0.16288552 -0.57872534 0.08035187 0.8642368 -0.09545234
-0.12591664 -0.55410016 0.85400295 -0.9563488 -0.085533075 0.22375359 -0.48191366 -0.76820534
0.83254504 0.4775282 0.01680052 0.61735016 -0.7100576 0.20744799 -0.1542006 0.80271894
0.6483257 0.20665003 0.6064444 0.9157219 0.84506655 -0.4117092 -0.072034314 -0.34531572
-0.08064539 0.44366458 0.07417284 0.42154026 0.7130783 -0.7856821 -0.3861679 -0.7954555
0.1988067 0.63952243 0.9787155 -0.18898642 -0.6217489 -0.4717642 0.8618924 0.7778356
00000000: 2e30 debe 99cf f93d 209a 57bf 19e5 033f
00000010: c243 57bf dbad 6f3e 85de 0bbf 2d74 7c3e
00000020: d306 3d3f 8e1f 423f 9c44 893e 0aaf 573f
00000030: 4a7c 303f 7f36 67bd 1806 9f3e a156 d9be
00000040: 9c3a 0d3f 1a95 cb3e 4ac6 a1bd 197c 3fbf
00000050: f0c7 3cbf e96d f8be fc95 62bf fd81 bdbd
00000060: 7a2d fdbe da5d 363f 6c76 2abf cc41 793f
00000070: d661 6e3e ba4b 65bf 94e5 91be 0800 9cbe
00000080: 0a3e 6abe 8a26 783f 2970 14bf 059d 5a3f
00000090: 1eac 9fbd 62c2 78bf 9376 6b3d 69dd d73e
000000a0: 8443 683f feca 513f 1f2b 27bf a902 633f
000000b0: b24d 723f 7101 f6be 3931 4e3f 1bff 74bf
000000c0: 5940 f4bd 215b 353f 4aba ddbe 9e76 ffbc
000000d0: 5a83 823e 8fe7 1b3f fddc 7c3f 5a7c 5fbf
000000e0: 8543 e13d 06f8 f93e 58b5 893e b3d5 9b3e
000000f0: 9b0f 32bf 345c 17bf ba60 20bf 6d99 1a3f
00000100: ba92 7dbc f059 75bf a6cc 87be e70f 76bf
00000110: 62aa 3fbf bcfd 053e 84b1 00bf 76a9 a1be
00000120: 17b3 fe3e ead4 16bd 929e 8b3c 2be0 893e
00000130: 065c 653f 9369 46bf 8772 843e 85e9 2fbf
00000140: 5633 49bf 1635 023f b47b 683f 7b96 b7bb
00000150: 23d2 c33c 1c3e f33e a35b d3be a26f 48be
00000160: 2f9f 7b3f 5e5d 733c b6e6 f43d 525a 0abe
00000170: f465 90be 7fdc d73e 9093 623e 4809 1cbf
00000180: 3fa9 39bf b6a5 56be 29cd 02bf 2377 583f
00000190: f461 97bd 99f1 133e e3dc 653f 445a 17be
000001a0: 372a eb3e dc6c c63e df08 6f3e 4ac2 debe
000001b0: ed13 333f c471 673e a3ee afbe df9d c63e
000001c0: 22d2 f9be 25c8 703f 6a06 3b3f 1081 663f
000001d0: 7af9 aabc 06e3 59bf d721 41bf 716d 51bf
000001e0: 846c cdbe 17ed 46be 565f debe f50b 3bbf
000001f0: 686e 5e3e cc04 01bf 9f3d 5b3f 423a 7ebf
00000200: 24eb 3abe ebee 05bf 532e d63e 7b98 e3be
00000210: 9931 7fbf 6dd4 b53e b8ba f4be 47ba 393f
00000220: d155 2b3e 283d f3be 26d6 a8be ce7a 83be
00000230: 06b4 11bf 432a 4dbf b322 03be a9cc 10bc
00000240: 7c36 a23e f398 0b3f 6366 14bf ea5e ac3e
00000250: dec9 34bf 3d08 ee3e ef23 55bf e48a 51be
00000260: ae4a 96be d6c6 4bbf 0983 263e 3629 67bf
00000270: 19ce d3be 4d41 f63e 2a5b 3d3f 8c56 6bbf
00000280: 4857 50bf 8b51 dfbe 65cd 0c3f a509 373f
00000290: a9ff f3be 16ca 573f c40a 7e3e ece0 df3d
000002a0: 0fe7 66bf 4ff8 34bf f96a 763f 653b 38bd
000002b0: 516a 6fbf c4c7 413f 2250 e1be 0aba 78bf
000002c0: efdd 953b 4b8c 98be 7e5b f13e 947c ca3e
000002d0: b23b c8be fec4 e5bd 1ab3 5a3c b1ac 54be
000002e0: 9077 cc3d 00a6 6e3f e78e ecbe c214 c23d
000002f0: 8f0a 503f 4bc8 b13e 1e12 dc3e 320d 393f
00000300: 518d dabc a414 213e 6444 87be 49ba 1e3f
00000310: e205 5bbf 4bbe 213f 82eb 0f3f 4a17 873e
00000320: da22 29bf 3d3f 1ebe 6460 793f 9930 93be
00000330: d813 a73e f83d 033f a502 32bf a1e9 a4bd
00000340: 5a7c 13be 6349 da3d a6de f73e 76cb 26be
00000350: 5827 14bf 858f a43d 9f3e 5d3f 847c c3bd
00000360: 4bf0 00be 82d9 0dbf f09f 5a3f 46d3 74bf
00000370: f72b afbd a91f 653e 63bd f6be 1ba9 44bf
00000380: ac21 553f 947e f43e 3ea1 893c a90a 1e3f
00000390: 56c6 35bf 3f6d 543e c3e6 1dbe fd7e 4d3f
000003a0: acf8 253f 119c 533e f13f 1b3f c06c 6a3f
000003b0: 4856 583f 8ccb d2be ba86 93bd 39cd b0be
000003c0: 6929 a5bd 0128 e33e eee7 973d 20d4 d73e
000003d0: 4d8c 363f 7622 49bf cdb7 c5be f9a2 4bbf
000003e0: fc93 4b3e beb7 233f 198d 7a3f a885 41be
000003f0: f02a 1fbf 148b f1be fba4 5c3f 3c20 473f

resize3_scale f4 [4]
1.0 1.0 0.5 0.25
00000000: 0000 803f 0000 803f 0000 003f 0000 803e

conv2_weight f4 [45, 26, 3, 3]
-0.41782415 -0.41932586 -0.56338114 0.25921085 -0.6864842 -0.8609582 -0.94538075 0.28704843
-0.73650336 0.75402397 -0.16226654 0.29289156 0.9370606 -0.83732486 -0.22132887 -0.5014687
0.8492643 0.75113666 0.76924676 0.055713065 0.2965173 -0.15561876 0.5888582 -0.12020362
-0.9767013 -0.43022668 -0.7229298 0.24793574 -0.8130311 0.97817373 0.9992482 0.07460718
0.12190755 -0.79659355 0.74051195 -0.752851 -0.5679579 -0.9208116 0.13744852 -0.023662273
0.8791473 -0.8048084 0.43299317 0.61940235 0.5813823 -0.32621044 -0.31134593 -0.28320962
0.35725886 0.7121398 -0.15923473 -0.32504517 0.7495503 -0.6707671 -0.6950116 -0.880419
-0.73031926 0.46155816 -0.2614859 -0.2324756 -0.88003814 -0.45039138 0.16968623 0.61585546
-0.9235571 0.62883836 0.79595834 0.81096023 -0.36388057 0.68197715 0.32799342 -0.1694019
0.382945 -0.690559 -0.6174118 -0.2649402 0.6591091 0.27506328 0.6145342 0.6608424
0.79721195 -0.44463322 -0.38415828 -0.74747133 -0.9132794 0.08275605 -0.90459365 -0.30853522
-0.5793001 -0.5287259 -0.0057926225 -0.31165665 0.15169905 0.6695433 0.33479875 -0.44065848
-0.16946942 0.42471012 0.8492701 -0.63773257 0.944054 0.8880931 0.717557 -0.6100789
-0.4690486 -0.37544993 0.40385142 0.6143705 -0.5498661 -0.7792186 0.26749933 -0.6769895
0.6585591 0.7778593 -0.9806941 -0.78656274 0.23303227 0.37500185 -0.49236867 -0.7277165
-0.47785124 0.3695237 -0.8274001 0.59513706 -0.58193755 -0.5418384 0.5883484 -0.0054106745
0.12925027 -0.6731587 -0.6021569 0.9961428 0.30597693 -0.2431907 -0.038326375 -0.789666
-0.052760553 0.0005580768 0.7234461 -0.6888792 0.068842426 -0.92213154 -0.2523964 0.4366407
-0.054199137 0.81362957 0.72196007 -0.70023346 -0.36025816 0.08825702 0.033066887 0.78798664
-0.8275785 0.18745854 0.4054308 0.21099101 -0.8106362 -0.9270624 0.11067311 -0.37102693
-0.38267294 -0.7387892 -0.51515025 -0.7383469 0.8027897 -0.34441316 0.74690646 -0.68021756
-0.08827079 0.100521244 0.9414371 0.8433585 0.8534935 -0.07561118 -0.7623382 -0.23537031
0.42433268 0.73950607 0.48447677 -0.23649743 0.3297243 0.6023624 -0.32460675 0.63537544
0.8939891 0.63939536 -0.41268694 -0.14088687 -0.8084338 -0.9148906 0.24844773 -0.6092424
-0.37830004 0.9237529 0.044379357 0.8960793 0.873786 -0.43315858 -0.48133156 -0.5723103
-0.7971018 -0.7002611 0.61371213 -0.5370011 -0.6773937 -0.8941159 -0.37870467 0.8638649
0.56797737 -0.55261916 -0.06408043 0.7508937 0.3218837 0.30365932 0.86082715 0.14209794
-0.22444366 -0.5703515 0.87194115 -0.81093216 0.108573206 -0.63293976 -0.33629948 -0.96825355
-0.68680394 -0.8565238 -0.89402235 0.55912924 0.99372846 0.9647562 0.92270684 -0.7741091
-0.48402596 -0.2503577 -0.03149495 0.101272255 -0.910328 0.6951559 -0.38932192 0.51185715
-0.9406756 -0.803363 0.11269051 -0.63591033 -0.8220057 0.5199048 0.8978327 0.33918384
-0.7807557 -0.55242264 0.4504465 0.6095083 0.82055485 0.6710071 -0.21453498 0.9780308
00000000: 0ced d5be e1b1 d6be bf39 10bf 49b7 843e
00000010: 6ebd 2fbf c267 5cbf 7904 72bf 03f8 923e
00000020: 7c8b 3cbf b707 413f 3329 26be e2f5 953e
00000030: 34e3 6f3f ec5a 56bf 09a4 62be 4160 00bf
00000040: 6369 593f 7e4a 403f 5bed 443f 6233 643d
00000050: 1ed1 973e 865a 1fbe 69bf 163f 512d f6bd
00000060: 1909 7abf ac46 dcbe ed11 39bf dee2 7d3e
00000070: ce22 50bf 9869 7a3f bbce 7f3f a6cb 983d
00000080: aaaa f93d 8eed 4bbf 3192 3d3f d8ba 40bf
00000090: b065 11bf 4fba 6bbf 4ebf 0c3e 62d7 c1bc
000000a0: cc0f 613f ec07 4ebf 48b1 dd3e 2791 1e3f
000000b0: 78d5 143f 0e05 a7be bc68 9fbe da00 91be
000000c0: a2ea b63e cb4e 363f 6e0e 23be 526c a6be
000000d0: 87e2 3f3f 65b7 2bbf 48ec 31bf 2463 61bf
000000e0: 34f6 3abf 5a51 ec3e 7be1 85be 150e 6ebe
000000f0: 2e4a 61bf b399 e6be 3ac2 2d3e b4a8 1d3f
00000100: 3d6e 6cbf 8dfb 203f edc3 4b3f 179b 4f3f
00000110: 8e4e babe 0e96 2e3f c1ee a73e b177 2dbe
00000120: 5e11 c43e 7ac8 30bf b30e 1ebf 3ea6 87be
00000130: 60bb 283f 18d5 8c3e 1d52 1d3f f82c 293f
00000140: 1516 4c3f f7a6 e3be 65b0 c4be 485a 3fbf
00000150: aecc 69bf 017c a93d 7393 67bf 54f8 9dbe
00000160: 034d 14bf 955a 07bf 0ad0 bdbb 7691 9fbe
00000170: ff56 1b3e 3167 2b3f be6a ab3e fd9d e1be
00000180: 6489 2dbe 9b73 d93e c469 593f 7142 23bf
00000190: 86ad 713f 125a 633f d1b1 373f 212e 1cbf
000001a0: 2327 f0be f93a c0be 9dc5 ce3e 6347 1d3f
000001b0: 06c4 0cbf df7a 47bf acf5 883e 2f4f 2dbf
000001c0: 5497 283f c921 473f c50e 7bbf 2d5c 49bf
000001d0: 03a0 6e3e 3e00 c03e bf17 fcbe a14b 3abf
000001e0: eba8 f4be 3632 bd3e 7ed0 53bf e75a 183f
000001f0: dcf9 14bf ecb5 0abf 009e 163f 074c b1bb
00000200: 2f5a 043e 2154 2cbf f426 1abf 3703 7f3f
00000210: 02a9 9c3e fc06 79be 1efc 1cbd 8d27 4abf
00000220: 731b 58bd e64b 123a c333 393f 635a 30bf
00000230: 42fd 8c3d d010 6cbf 1a3a 81be 5f8f df3e
00000240: eaff 5dbd 074a 503f 60d2 383f 8042 33bf
00000250: c273 b8be 19c0 b43d 2571 073d 7eb9 493f
00000260: 2fdc 53bf 22f5 3f3e a094 cf3e 070e 583e
00000270: db85 4fbf f653 6dbf 95a8 e23d 3ef7 bdbe
00000280: b5ed c3be 4a21 3dbf e3e0 03bf 4d04 3dbf
00000290: a083 4d3f ec56 b0be 4335 3f3f bd22 2ebf
000002a0: 51c7 b4bd 15de cd3d 0602 713f 58e6 573f
000002b0: 8d7e 5a3f 09da 9abd 9928 43bf ea04 71be
000002c0: 2242 d93e 4550 3d3f 570d f83e 622c 72be
000002d0: a0d1 a83e 6c34 1a3f db32 a6be f7a7 223f
000002e0: 78dc 643f 6aaf 233f b44b d3be a644 10be
000002f0: 84f5 4ebf 4536 6abf 1569 7e3e 4ff7 1bbf
00000300: 8bb0 c1be 127b 6c3f 21c7 353d 7465 653f
00000310: 70b0 5f3f f6c6 ddbe 1771 f6be ee82 12bf
00000320: dd0e 4cbf 5044 33bf 3d1c 1d3f e778 09bf
00000330: ac69 2dbf c8e4 64bf 94e5 c1be 4026 5d3f
00000340: f766 113f 7378 0dbf 9a3c 83bd 923a 403f
00000350: f1cd a43e 3c79 9b3e 2b5f 5c3f 1f82 113e
00000360: 8fd4 65be 8e02 12bf 8937 5f3f 4099 4fbf
00000370: a15b de3d 5708 22bf 722f acbe 77df 77bf
00000380: 62d2 2fbf 2545 5bbf a6de 64bf 1823 0f3f
00000390: fd64 7e3f 43fa 763f 8436 6c3f 042c 46bf
000003a0: 40d2 f7be e22e 80be d900 01bd d467 cf3d
000003b0: 410b 69bf bdf5 313f 3455 c7be 1209 033f
000003c0: 1ed0 70bf 33a9 4dbf 48ca e63d 05cb 22bf
000003d0: f76e 52bf 7b18 053f 5dd8 653f 81a9 ad3e
000003e0: 9bdf 47bf 926b 0dbf eca0 e63e bc08 1c3f
000003f0: e20f 523f 1fc7 2b3f 0faf 5bbe 3a60 7a3f

convtranspose4_weight f4 [45, 80, 3, 3]
-0.7064456 0.06734157 0.029331973 0.14389402 -0.3211855 0.4465611 -0.7256794 -0.77819324
-0.7853574 0.8137226 0.46530542 0.7405241 -0.5105642 0.25801593 -0.046751514 -0.2121193
0.44868737 -0.30451334 0.95417595 0.70458376 0.6941532 0.7756564 -0.54153943 0.4348584
-0.8412761 0.21019106 -0.3130583 0.6802151 -0.059461005 -0.570981 0.49295637 -0.8792737
0.20816536 -0.092213325 -0.10649804 -0.9044561 -0.47771037 -0.48554325 -0.9171505 0.7680935
-0.52985907 0.49148855 -0.038515434 -0.5918833 0.079824224 0.1089785 0.8201896 0.15746038
0.051156614 -0.5583765 -0.16206972 -0.2569688 0.0013071863 0.7239684 0.2571209 -0.55367094
-0.62662244 0.723476 -0.696212 -0.41295308 0.49783295 -0.7353491 -0.4447474 -0.72078633
0.39275897 0.43352178 -0.29557857 0.28550282 0.84789693 0.83419037 -0.75175744 0.68670565
0.47241098 0.04675605 -0.16386206 0.26273367 0.9399756 0.1822341 0.97449714 -0.50481176
0.61374885 -0.60166866 0.91522515 0.8573333 0.6240921 -0.75558543 -0.37525266 -0.640719
0.05687837 -0.9701355 -0.36788526 -0.8863649 -0.7318396 -0.7547876 0.5411109 0.51982194
-0.14423585 0.31669754 0.42149675 -0.9751484 -0.2749139 0.8992557 0.739009 -0.8196192
-0.22211553 -0.45144984 -0.136117 -0.28839284 0.5168292 -0.92338604 -0.45165232 -0.2819177
0.28909484 -0.80951625 0.6700486 -0.8583275 -0.65498513 -0.843112 0.5810574 0.64117223
0.67399687 -0.74902356 0.040745277 -0.75183135 0.8962421 0.09484474 -0.67977726 -0.17867166
0.38545927 -0.1347256 0.85822165 0.24317048 -0.9235632 0.023386646 0.73282737 0.26653856
-0.09858426 0.6892973 -0.5723548 -0.5444144 0.7616169 0.3023871 0.80200034 0.22661075
0.27692094 -0.93610257 -0.85092276 0.078134015 0.15760389 0.35232952 -0.04367593 0.8187359
0.6368313 -0.6621158 0.26240078 0.36818576 -0.55772096 0.55391586 0.74630374 0.23971839
-0.795443 -0.6819534 -0.6135335 -0.28799412 -0.09196433 -0.47529402 -0.038604684 0.69297075
0.68535644 0.0065661543 0.9943662 0.18766393 0.640534 0.26246276 0.81324166 -0.85584575
0.4108261 -0.5460545 0.9296561 -0.3772541 0.28848535 -0.07584785 0.0066198134 -0.18233086
-0.15274847 -0.892762 0.5122444 0.6369224 0.53406084 -0.10749336 -0.16656668 -0.0041813273
0.7525783 0.89505607 0.44157803 -0.64312357 0.5489727 -0.82456464 -0.8648602 0.8313813
0.098830834 -0.13181183 0.8474039 0.51433426 0.4692149 -0.7593172 -0.4011219 -0.6538738
0.83158576 -0.92372566 0.5349901 0.77186036 -0.66143465 0.27694702 -0.14218631 -0.99701554
-0.9349012 -0.4725888 0.6807412 0.37969917 -0.4696453 0.70254123 0.6019222 0.76892996
-0.4193746 -0.56199193 0.46988708 0.4831453 0.26035193 -0.29569784 -0.600232 -0.8968008
-0.43043244 -0.1041956 -0.41293958 -0.70312476 -0.15130535 0.67859274 -0.62199837 0.6973752
-0.8658229 -0.20124896 -0.15276384 0.891079 -0.7578213 0.6063634 0.59486574 -0.3384294
0.15987521 0.083871596 0.9055708 -0.40224075 -0.61286986 -0.45562258 0.5636377 0.012028643
00000000: 9ed9 34bf 61ea 893d 9b49 f03c f458 133e
00000010: 6d72 a4be a8a3 e43e 20c6 39bf ac37 47bf
00000020: 2f0d 49bf 2050 503f 833c ee3e fd92 3d3f
00000030: 56b4 02bf aa1a 843e 847e 3fbd cd35 59be
00000040: 5aba e53e 2ce9 9bbe e044 743f 9a5f 343f
00000050: 06b4 313f 6b91 463f 54a2 0abf c3a5 de3e
00000060: df5d 57bf 533c 573e 2d49 a0be 9422 2e3f
00000070: 628d 73bd d02b 12bf c764 fc3e 1518 61bf
00000080: 4d29 553e 57da bcbd a51b dabd 6f8a 67bf
00000090: 7496 f4be 2099 f8be 60ca 6abf c7a1 443f
000000a0: d8a4 07bf 63a4 fb3e 5cc2 1dbd aa85 17bf
000000b0: e27a a33d 1f30 df3d f2f7 513f 4b3d 213e
000000c0: 9989 513d c3f1 0ebf 9bf5 25be 6a91 83be
000000d0: e555 ab3a fe55 393f 5aa5 833e 61bd 0dbf
000000e0: 546a 20bf b935 393f f33a 32bf 966e d3be
000000f0: f6e3 fe3e d73f 3cbf eeb5 e3be 7485 38bf
00000100: b417 c93e 91f6 dd3e 1356 97be 6d2d 923e
00000110: c60f 593f 808d 553f 2d73 40bf f1cb 2f3f
00000120: dadf f13e 4683 3f3d 75cb 27be 0785 863e
00000130: 3ea2 703f 939b 3a3e a578 793f 583b 01bf
00000140: a51e 1d3f f506 1abf 324c 6a3f 327a 5b3f
00000150: 80c4 1f3f 0c6e 41bf 1e21 c0be 2906 24bf
00000160: 4bf9 683d cd5a 78bf 755b bcbe cfe8 62bf
00000170: d759 3bbf c339 41bf 3e86 0a3f 0d13 053f
00000180: 90b2 13be 2e26 a23e 6cce d73e 53a3 79bf
00000190: 84c1 8cbe 9f35 663f b22f 3d3f 90d2 51bf
000001a0: 4172 63be 6f24 e7be 4162 0bbe 3aa8 93be
000001b0: eb4e 043f 0763 6cbf f93e e7be 8457 90be
000001c0: 3d04 943e 753c 4fbf 4e88 2b3f 5abb 5bbf
000001d0: 1bad 27bf 30d6 57bf 2ec0 143f dd23 243f
000001e0: 0f8b 2c3f 02c0 3fbf 85e4 263d 0578 40bf
000001f0: 1f70 653f f63d c23d e205 2ebf b4f5 36be
00000200: eb5a c53e 82f5 09be 6ab4 5b3f af01 793e
00000210: a36e 6cbf 5a95 bf3c 939a 3b3f be77 883e
00000220: 8be6 c9bd ca75 303f d885 12bf be5e 0bbf
00000230: 53f9 423f 7bd2 9a3e e54f 4d3f a60c 683e
00000240: 95c8 8d3e 6ba4 6fbf 13d6 59bf ba04 a03d
00000250: ea62 213e 8964 b43e 88e5 32bd ad98 513f
00000260: 6007 233f 6c80 29bf 6559 863e d882 bc3e
00000270: cdc6 0ebf 6ecd 0d3f c30d 3f3f bd78 753e
00000280: 27a2 4bbf 7f94 2ebf 8810 1dbf f773 93be
00000290: cb57 bcbd bd59 f3be f21f 1ebd 8866 313f
000002a0: 8573 2f3f e528 d73b c98e 7e3f f92a 403e
000002b0: 09fa 233f 8561 863e 9b30 503f b518 5bbf
000002c0: cc57 d23e 3aca 0bbf f1fd 6d3f 7327 c1be
000002d0: 5ab4 933e 1e56 9bbd 05eb d83b f1b4 3abe
000002e0: 186a 1cbe 0d8c 64bf 7322 033f 590d 233f
000002f0: 36b8 083f 7b25 dcbd 7590 2abe 8403 89bb
00000300: f9a8 403f 6522 653f 8416 e23e bfa3 24bf
00000310: 7a89 0c3f ab16 53bf 7a67 5dbf 68d5 543f
00000320: d267 ca3d aef9 06be 76ef 583f 69ab 033f
00000330: ef3c f03e 9d62 42bf da5f cdbe 4664 27bf
00000340: cee2 543f 4979 6cbf 1cf5 083f a498 453f
00000350: c853 29bf 00cc 8d3e 4a99 11be 693c 7fbf
00000360: af55 6fbf 29f7 f1be 0e45 2e3f ee67 c23e
00000370: 5975 f0be bed9 333f 9317 1a3f 98d8 443f
00000380: 44b8 d6be b4de 0fbf 0a95 f03e d25e f73e
00000390: d94c 853e b565 97be cea8 19bf bd94 65bf
000003a0: a461 dcbe 8164 d5bd d16c d3be fcff 33bf
000003b0: caef 1abe 41b8 2d3f 493b 1fbf 2e87 323f
000003c0: 92a6 5dbf 3514 4ebe 206e 1cbe c11d 643f
000003d0: 9400 42bf a23a 1b3f 1f49 183f 9e46 adbe
000003e0: 54b6 233e dfc4 ab3d 7dd3 673f 80f2 cdbe
000003f0: 0ae5 1cbf 5d47 e9be 8f4a 103f c913 453c
